lora_smol_llama_finetuned/checkpoint-9495/adapter_model.safetensors (safetensors, 494624 bytes, 24 tensors)

base_model.model.model.layers.0.self_attn.q_proj.lora_A.weight f4 [8, 768]
00000000: 4008 163e d871 053b 349e 43bc 53a2 aa3d
00000010: e322 0abd 9c5f c5bc ea67 9a3d 2dfb a4bc
00000020: d390 a63c 05d7 56bd d70e f1bb 31d8 0cbd
00000030: 21aa 633d 92c6 a53b b3c5 58bc 280a 9cbd
00000040: 2733 3a3d 3a78 3bbd 9297 4abd 27da 79bd
00000050: f6dc 6d3d a0fe 22bd b35f 3fbd fc46 673d
00000060: e190 513d b5e4 623c 9b83 9abc a60d 803c
00000070: 2602 0f3d d300 d33c 8c53 8e3b 7286 753c
00000080: ad0d 413d 2e8a a03d 7a59 67bc afd1 273d
00000090: 7ede 5b3d 7f1f bc3c 7777 96bd 62a2 79bd
000000a0: 44ad 3ebb a183 74bd fc79 26bc c70c 623b
000000b0: a209 a7bd 7ed5 f9bb 7e96 9cbd e79b 8fbc
000000c0: fdae b3bd 0d5f 923c c054 e73c e36a 2fbd
000000d0: deb5 b33d 246e 5c3d 826b d03d 579c 113d
000000e0: d95f cc3d c0b8 5f3c a6f3 e0bd a1b4 c4bd
000000f0: 83fc 43bc 83b9 783d ce24 2a3d 9893 11bd
00000100: 9810 5fbd 274c 6b3d 7332 943c 6141 4f3d
00000110: 4a95 073d 0a49 ac3d 840a dabc d571 2cbd
00000120: 4c78 9d3d f76f a13c e1ee 683d 0262 94bd
00000130: b83a 063d 89ff fb3c 498c 7abd 8dba f1bc
00000140: 0199 853d ea83 693d 6799 d43d 5cf8 99bd
00000150: 40a5 adbc 312a 16bb 1f9d 39bd cb42 3e3d
00000160: f35e 343d 8660 d4bd b7af 61bc 4cd5 79bd
00000170: bb58 b33d 5768 e93d b309 acbc b3e0 04be
00000180: 2e2b 0fbc 289b 633c 7305 563d 463f 8b3b
00000190: 3c1c 97bc 50eb bbbd 44c0 92bd 49cd 723c
000001a0: 1a21 92bc 8dcd b43c a1f5 a53c 130e bd3d
000001b0: 7438 313c bdc2 1e3d 8bda 00bd 4647 1bbd
000001c0: 8dd7 873d a1d3 a2bd 3bc4 4abd 182d 70bb
000001d0: f11d 163d 66d8 2abe 5ea5 96bb 51b6 89bd
000001e0: 4b0e c7bd 4843 3e3c 17dd c43c effa 10bd
000001f0: b965 39bd 1145 c83d f271 0d3d 4bb3 5a3c
00000200: 7031 933d 4727 9d3d 820c 13be 439e b8bd
00000210: fd2c ad3c d52e 1d3c 902b 603d 8b1f 58bc
00000220: 0300 e13c 2aa5 e2bd 9372 0c3d cba0 bc3c
00000230: 1bef 70bc 2cb9 f63c 47d2 f1bb 1db5 88bc
00000240: e481 8c3d cd22 3dbd 04ec e73c 696b d43d
00000250: ed89 b03c a2a2 fabd 243c d53c 5363 b63c
00000260: 9c19 0ebd 2fca a138 277b efbc 9c85 babd
00000270: 394d 543d 5707 a43d b638 863c a5e1 53bd
00000280: 32eb e6bb df37 8abd 3f14 13bd 0969 c13d
00000290: 1adf 85bc da2f 9abc 5056 6c3d 504b 9dbd
000002a0: eddf e83b 69ff 1f3c 118e 37bd c1d9 8a3d
000002b0: 70e0 9d3b e5f3 16bc ed27 afbd 442d 793c
000002c0: 4b00 703d 5b6f f73c 581f 38bc 2e2b 8ebc
000002d0: d13a c5bd 8f85 b53d 628a 263c a75a a73c
000002e0: 2b1d a23c a4b4 9bbc ad5b 58bd 96d2 8bbc
000002f0: d5fa 063e 719d eb3c e3d0 533d 4ee3 b2bd
00000300: 6b75 af3c f158 2ebc b65e 6b3c 42f4 1fbd
00000310: ac5e 8bbd bb94 02bd db17 24bc 7836 dfbc
00000320: 64b1 cb3c 46ed 973c 3ac7 f43c ae6d f7bc
00000330: 996f 003c 50ec 88bd fb46 37bd 104c 2f3c
00000340: 2be0 12bd b336 ae3c 9f49 b83c 41fc 5e3d
00000350: c25e c93d acc6 5fbc 5c52 40bd 0961 b43c
00000360: 1bb4 253d b056 a03d aff7 4cbd d8ef 693b
00000370: 4cb8 573d 5f0c a0bc 7c72 43bd aff1 cd3b
00000380: 11d8 23bd 4d1e 7e3d 56c6 073d d094 f5bc
00000390: 4b23 fbbd d60a 6ebd af62 19bc 8235 c03d
000003a0: 6bdb e63d f3ec 313b cd80 9e3a 8dec d4ba
000003b0: 7b67 a43c 4f07 af3d 9a5c d6bc f34d c4bc
000003c0: b23a 623d 8c2b f1bc a345 0fbd 180b 77bd
000003d0: 4ba1 ee3d bbe9 5dbd 9765 a7b9 51d5 a8bc
000003e0: ad2b dbbd 5839 033d 20e0 edbc 51f5 d73d
000003f0: 16d2 f93c 0cf1 f73d 79a1 203c d0c0 a83c
0.14651585 0.0020362046 -0.011939574 0.08331742 -0.033724677 -0.024093442 0.07539351 -0.020139301
0.02033273 -0.052451152 -0.0073565054 -0.034385864 0.05558217 0.005059072 -0.013230729 -0.07619125
0.04545894 -0.045768954 -0.049460955 -0.060999062 0.058072053 -0.03979361 -0.046722125 0.05646418
0.051163558 0.013848473 -0.018861583 0.015631508 0.03491416 0.025757229 0.0043434557 0.014985668
0.047132183 0.07838856 -0.014120454 0.040971454 0.053678982 0.022964237 -0.07347005 -0.060945876
-0.0029094974 -0.059695844 -0.010160919 0.003449248 -0.08156134 -0.007624327 -0.076458916 -0.017530395
-0.08773611 0.01786759 0.028238654 -0.042826544 0.08774923 0.053815976 0.101767555 0.035549488
0.09979219 0.013654888 -0.10983972 -0.09604765 -0.011962059 0.060723793 0.041539006 -0.035541147
-0.054459184 0.05744567 0.018090462 0.05059946 0.033101358 0.084123686 -0.026616342 -0.042100746
0.076889604 0.01970671 0.056868438 -0.07245256 0.032770842 0.030761497 -0.061168943 -0.0295079
0.06523324 0.05701057 0.10380822 -0.07518074 -0.021196961 -0.0022913332 -0.045315858 0.046450417
0.044035863 -0.10369973 -0.013774804 -0.06099443 0.08757158 0.11396854 -0.021000719 -0.12976341
-0.008738322 0.013891973 0.05225129 0.004249486 -0.01844608 -0.09175742 -0.07165578 0.014819452
-0.01783805 0.02207067 0.020258727 0.092312 0.010816682 0.038759936 -0.03145842 -0.03790977
0.0663291 -0.07950521 -0.049503546 -0.0036647972 0.036649648 -0.16684112 -0.00459735 -0.06724227
-0.09719523 0.011612721 0.024031205 -0.03539556 -0.045263026 0.09778798 0.034532495 0.013348411
0.07187164 0.07673507 -0.1436024 -0.09014561 0.021139616 0.009593685 0.054729044 -0.013191114
0.027465826 -0.11066659 0.034288954 0.02302589 -0.014705445 0.030117594 -0.0073798033 -0.016687924
0.06860712 -0.046175767 0.028310783 0.10372049 0.021550143 -0.12238051 0.026029654 0.022264158
-0.03469239 7.714738e-05 -0.029233528 -0.09107515 0.051831458 0.080092125 0.016384464 -0.051728863
-0.0070470804 -0.06748938 -0.03590798 0.09443862 -0.016341735 -0.018821646 0.0576995 -0.0768038
0.007106772 0.009765484 -0.04481322 0.067798145 0.004818015 -0.009213422 -0.08552537 0.015208546
0.05859403 0.030204466 -0.011237942 -0.017354574 -0.09630359 0.08863365 0.010164829 0.020428969
0.019789299 -0.019007035 -0.052821804 -0.017068189 0.13181622 0.028761597 0.05171288 -0.08734761
0.021418294 -0.0106413225 0.014365843 -0.0390513 -0.068051666 -0.03188012 -0.010015453 -0.027247652
0.02486486 0.018545758 0.029880155 -0.030203667 0.007839107 -0.06685698 -0.044745427 0.010699287
-0.035858314 0.021266317 0.022496043 0.054439787 0.09832527 -0.013658207 -0.046953544 0.022018926
0.040454965 0.07829034 -0.050040897 0.0035695937 0.052665994 -0.019537149 -0.047716603 0.0062849144
-0.04000098 0.062040616 0.033148132 -0.029978186 -0.12262591 -0.058115803 -0.009361907 0.09385206
0.112723194 0.002714929 0.0012092829 -0.0016244814 0.020068875 0.08546316 -0.026167203 -0.02396295
0.055231757 -0.02943971 -0.03497852 -0.060313314 0.11651858 -0.05417798 -0.00031928412 -0.02060953
-0.1070169 0.03203711 -0.029037535 0.10544837 0.030495685 0.12106523 0.009804123 0.020599753

base_model.model.model.layers.0.self_attn.q_proj.lora_B.weight f4 [768, 8]
00000000: 1e00 9f3c b72f 063d 6af0 a3bb 6348 5abc
00000010: f90b ecbb dd66 103d e89d ebbb 5531 c63c
00000020: f214 c9bc 40c5 76bc 7622 35bb e339 23bd
00000030: a2c7 843c 18be cfbc 82b3 7e3d 589f 24bd
00000040: 9e21 90bc a484 bdbb d4ce d83b 41f2 44bc
00000050: 99db 3abb bc60 c5bc 07e1 44bd 6506 383c
00000060: 3f89 373c b971 923d f690 563c 8b47 cf3b
00000070: c4f5 2a3d 2cd9 14bd 254e 02bd 88cf 7d3d
00000080: 47eb 863d d47c 0a3e 82ea 27bc fbec 8ebc
00000090: 280f 6e3d bde9 1abb 8f0f 0e3d c6bd 633d
000000a0: b694 84bc 1e3e a4bc 9745 453d 9a11 873d
000000b0: 2b20 36bd b233 8cbd bf27 233c 26ce e63c
000000c0: 93c8 1c3d 733d 063d ccd2 bdbc 9919 a7bc
000000d0: 65bf e13c 9f52 f7bc d984 b23c 17de 583d
000000e0: 17e5 433d 7759 873d 4064 6e3d ff5c 743d
000000f0: aabb 2c3d bec0 f2bc 50d7 1dbd 154c 0cbd
00000100: 972b b23c 5f5a 5dbc d243 c5bc f6ee febb
00000110: a513 2b3d 5407 503d d3bc a83c 570e c9bc
00000120: 1a66 083d abb5 5b3d 813a 813d d7c7 a43c
00000130: 9fcf 6f3b 7317 0ebd 49cb 8cbb 8d96 d4bb
00000140: 52d0 5bbd e74f 2e3d 9a48 a5bc 37e4 84bc
00000150: 5a77 993c fc4b 453d 1a94 423d 2411 3a3c
00000160: 9faa 25bd e427 8f3d 282c a73c af7e a4bd
00000170: c46a bcbc 251b 40bd 4509 253d c112 9c3d
00000180: b7ef 57bd a0fe 303d a0e9 37bd 0840 bdbc
00000190: 489b a7bd 3009 58bc d38a 1d3d 6367 973d
000001a0: e0fd a43d 614a e33b eed2 e7bb 4dd1 e93b
000001b0: b3b1 373d b5cd 5fbd 7696 a33a 6e47 ae3c
000001c0: 6fc3 c9bc 5afc 96bb 9f7e 57bc 0c16 a0bc
000001d0: 49aa 463c 8f2f 38bd d033 e0bc deb6 1d3d
000001e0: 1464 3c3d 617f e4bd dd8b 85bd ba38 333d
000001f0: 9d76 c4bd 308d 2fbd b33b a33d b79d db3c
00000200: 82ec 213c ef12 b2bb f9a1 953c 472c 9dbd
00000210: 760f 233e 0622 82bc 5e4a bebc fccd f13c
00000220: da43 01bc e4f5 48bd b436 42bd 7dd5 0d3c
00000230: 59a9 f23c f316 1d3d 00bc 573d ae2f 083d
00000240: ad74 bebc b5d5 8ebc 09ed f83b 148f 07bc
00000250: 6b42 c6bc d867 13bd 4446 bbbc bfd6 39bd
00000260: f5e8 acbc bc75 79bd 2129 883d e9b2 413d
00000270: e9ba 043d 113f 68bd 7cb4 d4bd df53 76bd
00000280: 6b16 5ebb e1fc 93bd 7162 de3c bb2a 3a3d
00000290: 7d7b 253c 2761 72b8 b9f0 0abc 81b7 be3c
000002a0: df92 b3bc 06ac 02be b076 9abd a39f af3c
000002b0: 6914 39bd c23e ed3c 1370 863d f8f7 163c
000002c0: 1c99 08bb ca7a 6cbb 12dd f43c 1e44 9c3c
000002d0: 5017 153c 8c1c fcbc 2f13 a2bc 62cd abbc
000002e0: 94c0 0abd fb8b 4abd 3672 8abd eb12 78bb
000002f0: e015 b3bd e817 41bc d069 d33b 44b8 083d
00000300: 850b 25bd 9b0a 77bd 197a 68bc 409c 72bd
00000310: 545d 50bd 4987 b73d 7039 c63c ccdb a9bc
00000320: 8cf2 e23c 3db7 ddbd 197a 0abd cbdc c03d
00000330: db1a d0bc 69d2 efbc b005 cbbc f627 7bbd
00000340: 16fc bd3d 4a10 a2bd eb5d ab3d 592e 993d
00000350: 5cff e2bc c41c 87bd c4c6 b7bd d0a1 bdbd
00000360: 6ca8 1b3d adf2 cfbb 70cc 60bd 28a4 12bd
00000370: f7fb 903d 4efe 9b3b ddfe 88ba ec07 713d
00000380: 3815 b63d aeb9 2bbd f18e 803d 7bea de3c
00000390: 62a5 2c3d 048a c33c b717 21bd e669 87bd
000003a0: f3ed c53d c0e2 013c 5284 303d 2206 043b
000003b0: 6753 9d3c 9996 bbbc d474 59bd 3df6 103c
000003c0: a13a d13c 42e3 1cbd 24ba 9a3c 46ae 513d
000003d0: f2e1 043c 9c00 b0bc 5219 17bd b348 cfbc
000003e0: c6b3 303d 1af0 49bd 975a 8d3d 0ec1 a03d
000003f0: 1764 e8bb 127a 43bd 52f6 bdbd d767 4abd
0.019409236 0.03276035 -0.005003025 -0.013322922 -0.0072035757 0.035254348 -0.0071904548 0.024193445
-0.02454612 -0.0150616765 -0.0027638949 -0.039850127 0.016208474 -0.025359198 0.06218291 -0.040191025
-0.017594155 -0.0057836343 0.0066164527 -0.012020648 -0.0028512238 -0.024093978 -0.048066165 0.011231993
0.011202156 0.07150597 0.013096085 0.0063256673 0.041738287 -0.036339924 -0.031812806 0.061965495
0.06587844 0.1352418 -0.010248782 -0.017446985 0.058119923 -0.0023637854 0.034682807 0.055600904
-0.016184192 -0.020049151 0.04816207 0.06595154 -0.04446427 -0.068457976 0.009958207 0.028174471
0.03827722 0.032773446 -0.023171805 -0.020397948 0.027557084 -0.030190764 0.021791862 0.052946176
0.0478259 0.06608861 0.058201075 0.059659 0.042171158 -0.029632922 -0.038535416 -0.034252245
0.0217493 -0.013510316 -0.02408019 -0.007779951 0.04176678 0.05078824 0.02059785 -0.02454297
0.033300497 0.05364005 0.06309987 0.020114822 0.0036592258 -0.03469033 -0.0042966944 -0.0064876736
-0.053665467 0.04255667 -0.02017622 -0.016222103 0.01873367 0.048168167 0.047504522 0.011356626
-0.04044592 0.069900304 0.020406798 -0.080319755 -0.023000129 -0.046900887 0.040292043 0.076207645
-0.052718844 0.04321158 -0.044900537 -0.023101822 -0.081839144 -0.013185784 0.03846247 0.07392766
0.08056235 0.006936357 -0.0070747053 0.0071355463 0.0448472 -0.054639537 0.0012480754 0.021274295
-0.024629323 -0.0046077194 -0.013152747 -0.019541763 0.01212556 -0.04496723 -0.027368456 0.038504474
0.04599388 -0.11157108 -0.065208174 0.04375527 -0.09592936 -0.042859256 0.07970371 0.026808603
0.009883048 -0.005434386 0.018265711 -0.07674461 0.15923867 -0.015885364 -0.02322882 0.029517166
-0.007889712 -0.049062625 -0.04741545 0.008656857 0.029621767 0.038351964 0.052669525 0.033248596
-0.023248995 -0.017435888 0.007596616 -0.008273859 -0.024201592 -0.035987705 -0.022860654 -0.045370813
-0.021107176 -0.060903296 0.0664847 0.047289763 0.032404814 -0.05670077 -0.10385987 -0.06013858
-0.0033887874 -0.07225967 0.02714655 0.045450907 0.010100243 -5.7787776e-05 -0.008480244 0.02328086
-0.02192062 -0.12760934 -0.07542169 0.021438425 -0.04518548 0.02896059 0.06564345 0.009214394
-0.0020843213 -0.003608393 0.02989057 0.01907545 0.009099796 -0.030775331 -0.019784538 -0.020971958
-0.033875063 -0.049449902 -0.06760065 -0.0037853073 -0.08744407 -0.011785485 0.006451823 0.033378854
-0.04029419 -0.06031285 -0.014189267 -0.059231043 -0.050870255 0.089613505 0.02419731 -0.02073469
0.027703546 -0.108259656 -0.033807848 0.09417113 -0.02540343 -0.029275136 -0.024782985 -0.061317407
0.09276597 -0.07913263 0.08367523 0.07479543 -0.027709655 -0.065972835 -0.089734584 -0.09259379
0.038002416 -0.006346068 -0.054882467 -0.035801083 0.070793085 0.00476054 -0.0010451932 0.058845446
0.08890766 -0.041925125 0.06277264 0.027211418 0.04214991 0.023869522 -0.039329257 -0.066119954
0.09664526 0.007927597 0.04309494 0.0020145257 0.019204808 -0.022898959 -0.05308993 0.00884777
0.025540652 -0.038302667 0.018887587 0.05119159 0.00811051 -0.021484666 -0.03688938 -0.02530322
0.043140195 -0.049301244 0.06902044 0.07849322 -0.0070920098 -0.047723837 -0.092754975 -0.049415436

base_model.model.model.layers.0.self_attn.v_proj.lora_A.weight f4 [8, 768]
00000000: fd81 783c 8bab 493d 7b32 0dbd 97ac 7dba
00000010: d332 13bd c255 243d 588a 11bb e96a 0dbd
00000020: 0a2f 203c 941f 03bd aa3c 973d 9da7 953b
00000030: 0798 6ebb 9b84 0cba d92d 9d3c 3e94 b93c
00000040: 92ec 0cbd 3253 5b3b d1a2 433c b9ed 9a3b
00000050: f47e dab8 7774 d13a ce3c 573d 8880 473d
00000060: d972 d83c db53 7d3b 27a9 af3c b6d0 2dbc
00000070: b3c5 e33c c5a1 6fbc e29d b4bc 7dfb 88bc
00000080: b8c1 5aba 88cf 88bd 7705 15bd ef71 3f3d
00000090: 4ad5 203c 8058 d33c f80e 043b cb16 0dbd
000000a0: 1b7c 3ebb b843 e33b 6ac9 2f3d 2a69 c43c
000000b0: dc7a 053b fe03 3b3c 594d e13c 0770 25bc
000000c0: fa9d 35bd b103 a63b 78ba 02bd 2dc9 04bd
000000d0: 0de8 1c3d b51b a9bb fa8a 15bd 2e46 93bb
000000e0: ba4c 633b 9b9b a0bc ec4c 133c da78 48bb
000000f0: 0f52 1a3d 0108 99bd 3f8d 6aba 5603 2f3d
00000100: 6739 a03d e72c 023d a6d7 c4bb 670a dcbc
00000110: 1741 2b3b ac75 273c ab2a 41bc 24ce ab3c
00000120: fb8a 53bc 5205 8dbb a5ac e83b dd57 2ebc
00000130: 8f4d f839 7558 0a3c a416 933b d2e9 8abc
00000140: 5203 5c3b de13 683d aaad 2e3d 56e6 d7bc
00000150: ce91 253c 8bb1 663d 8aab ef3b d9f6 6bbc
00000160: cbd2 9dbc 3410 3abd 4c78 05bc 5911 c53b
00000170: 9753 023d fa83 84bc 9f5a 8dbc 6969 d9bc
00000180: af07 0dbc 3bf7 343a b3c8 96bc 76da 06bc
00000190: 1e13 a33b 618d fe3b 2414 eb3c 8a3f 21bd
000001a0: ad01 3dbc 5037 41bc 6e85 00ba 2505 99bc
000001b0: 0986 c9bb 0162 adbb 44e5 45bc fca7 3e3d
000001c0: ebc7 aa3c c7b3 ca3c db55 823d 3c25 06bd
000001d0: c9ac 393b b009 8fbd 0351 1dbb 61ec b3bc
000001e0: d107 03bd ba25 fbbb d20b cf3b b563 9abb
000001f0: 5a32 433c c31f 2b3d 047b 33bc 4e57 a5bc
00000200: 8502 c33b 9892 ddbc 8944 13bc c7fb 0fbd
00000210: 42f3 6dbb 7bc7 033d 3879 9bbb 1377 89bc
00000220: 2253 0ebc d885 033d 55dc 203d e07e dcbc
00000230: 8a35 aebc 1288 e1bc bf03 78bd 97c6 63bc
00000240: 267e 803a ddf9 bbbb 4cc4 8dbb a3d4 8ebc
00000250: af3c 2e3d 9859 f3ba 6bee 9f3c 58f0 3a3d
00000260: 6736 813c c3b5 a23c 5149 363c 0a1d dbba
00000270: 0b3c 143c 81eb bc3a 66a0 b3bc 7629 9a3c
00000280: 3190 4cbd 6dfa 37bb e8c6 033b 1e92 033c
00000290: 61d0 093d 56f3 a43c 4103 93bb b7d6 023d
000002a0: 5741 713d 0bff 69ba abbc 4fbc a1f8 8b3d
000002b0: b7de ca3c 408a 7c3c 90dc a43b 32df 50bd
000002c0: ca82 b33c 413e f93c 53f5 1abc 497b 013d
000002d0: 9638 b33c 3b7e 1f3d 4dc3 883c 6e92 253c
000002e0: 0fd4 b7bc e487 fa3b 508d 89bd 8094 f8bc
000002f0: 7345 b4bc f854 b0bc 0345 b33d cc9c b6bc
00000300: da17 883c 9192 11bc 6b8d 83bd 74ac be3c
00000310: 878c 333c 339a c03c 2682 e4ba 12cb 0abb
00000320: bfd5 3b3d fc45 9d3b 47c8 2abc 4f2f 9c3c
00000330: 45aa b03a 92fc ab3c 14ec 21bd 539d 06bd
00000340: 1be4 9bbc e127 b33c 0d4c 3a3d ea4e 723d
00000350: b923 8b3b 8f71 28bc f6ee 523d 63a4 de3c
00000360: 275d 5d3c 6aea 21bc e0e9 b53c 65fd c4bc
00000370: f8eb f1bc d6ef 9f39 0944 883d 71a9 cebb
00000380: e797 923c 0aac 01bd 5138 143d 5d2e a0bb
00000390: 023e 893c e57a d63c e36c 7ebc 2233 f23c
000003a0: 85a0 c9bb 045d 743b f302 0dbb 428f c3bc
000003b0: 10e7 6ebc 55fd 8bbc a8d1 f5bb 0222 17bb
000003c0: 4890 df3c 0263 ca3b 45dc a239 b232 8b3c
000003d0: dcdd 46bd e28a 613c 0975 50bc c19d a7bb
000003e0: 9ecc f1bc 55b1 b93c c1b2 0d3c d152 023c
000003f0: 81a8 553d 22f0 4b3c b45f 30bb 28ba 31bc
0.01516771 0.04923586 -0.03447197 -0.0009676902 -0.03593714 0.040120848 -0.0022207703 -0.034525786
0.00977684 -0.032012537 0.073846176 0.0045671 -0.0036406533 -0.0005360336 0.0191869 0.022653695
-0.0344053 0.0033466336 0.011940674 0.004728046 -0.00010418697 0.0015980144 0.052548222 0.04870656
0.026421951 0.0038654718 0.021442963 -0.010608843 0.027804231 -0.014625971 -0.02204794 -0.016721481
-0.00083449064 -0.066802084 -0.036382165 0.046739515 0.009816477 0.025799036 0.0020150524 -0.034445565
-0.0029065672 0.006935563 0.042916693 0.023975927 0.002036742 0.011414526 0.027502703 -0.01009751
-0.04434011 0.005066358 -0.03191611 -0.03241842 0.03830724 -0.0051607736 -0.03650949 -0.00449445
0.0034683184 -0.019605448 0.008990508 -0.0030589611 0.037675913 -0.0747223 -0.0008947439 0.04272779
0.07823449 0.031781103 -0.0060071526 -0.026860429 0.0026131326 0.010220926 -0.011789958 0.020972319
-0.0129115535 -0.0043036127 0.007100659 -0.010641065 0.00047360032 0.008443941 0.004488783 -0.016957197
0.0033571315 0.05665957 0.042646088 -0.02635495 0.010105563 0.056321662 0.00731415 -0.014402115
-0.019265553 -0.04542561 -0.008146357 0.006014031 0.031818 -0.016176213 -0.017255126 -0.026539521
-0.008607789 0.0006903295 -0.018406248 -0.008230796 0.004976644 0.0077683185 0.028696127 -0.039367236
-0.011536044 -0.011792973 -0.0004902695 -0.01867921 -0.0061500114 -0.005291224 -0.012078587 0.04654692
0.020847281 0.024743928 0.06364032 -0.032750353 0.0028331748 -0.069842696 -0.0024004586 -0.0219633
-0.031989876 -0.0076644095 0.0063185478 -0.004711593 0.01191386 0.041778337 -0.010954622 -0.020183232
0.005951228 -0.02704744 -0.008988508 -0.035152223 -0.0036308323 0.03217266 -0.004744675 -0.016780412
-0.008686813 0.032110065 0.039272625 -0.026915967 -0.021265764 -0.027530704 -0.060550448 -0.013902328
0.000980322 -0.005736573 -0.004326379 -0.017435377 0.04253834 -0.001856613 0.019522866 0.045639366
0.015773011 0.019862061 0.011125878 -0.0016717028 0.0090475185 0.0014413447 -0.02192707 0.018818598
-0.0499422 -0.002807285 0.002010757 0.0080304425 0.03364599 0.020135563 -0.004486472 0.03194305
0.058900204 -0.0008926249 -0.012679259 0.068345316 0.024764402 0.015413821 0.005031176 -0.050994106
0.021912951 0.030425193 -0.009457904 0.031611715 0.021877568 0.038938742 0.01669469 0.010105712
-0.022439985 0.007645594 -0.06716406 -0.030344248 -0.022005772 -0.021524891 0.08753397 -0.022291563
0.016612936 -0.008885042 -0.06423458 0.023275591 0.010958797 0.023511028 -0.0017433807 -0.0021178168
0.04585814 0.0047996026 -0.010423726 0.019065527 0.0013478479 0.020994458 -0.039531782 -0.03286488
-0.019029668 0.021869602 0.045482684 0.05915729 0.004246202 -0.010280981 0.051497422 0.027177995
0.013510979 -0.009882549 0.022206247 -0.02404661 -0.029531464 0.00030505535 0.06653602 -0.00630682
0.017894698 -0.03165821 0.03618652 -0.0048883394 0.0167532 0.026181648 -0.01552889 0.029565398
-0.0061531686 0.0037286887 -0.002151665 -0.023872022 -0.014581457 -0.017088572 -0.0075017996 -0.0023061042
0.027290478 0.0061763534 0.0003106316 0.016991947 -0.048551425 0.013766022 -0.012723216 -0.0051152413
-0.029516514 0.022667566 0.008648575 0.007954315 0.05216265 0.012447389 -0.0026912512 -0.010847606

base_model.model.model.layers.0.self_attn.v_proj.lora_B.weight f4 [256, 8]
00000000: dbb6 fcbb dedb 56bc 55d1 e5bb 0d4d 26bc
00000010: 4c67 b1bb 8b75 6e3d 35fb 22bc 7139 34bb
00000020: 5eca 2fb9 89ea 1e3c 4e64 c13c 9f7d 063c
00000030: 069c e33b eb32 d33b 52db 383a a837 1cbc
00000040: 9682 83bc 8256 9f3a f472 dfbb e4fe 61ba
00000050: d641 d1bc 58e4 b7bc ec56 e4bb eb20 7d3b
00000060: fe5b cb3b eac6 c7ba 5da3 36bb 3ca3 b13a
00000070: f10c 643c e1a2 cf3b d76b 14bc ecd7 b53b
00000080: e0f9 1bbd 3ae7 903c 4f29 c63c d707 a7bc
00000090: ea86 5b3c 9d47 8dbc 8b23 de3c 26b7 0c3c
000000a0: d787 e3bb f66e 473c 55ff 4bbc 371f 93bc
000000b0: 7d23 9c3c abb9 323c f38c 073b 613f ccbb
000000c0: 27d2 97b9 6901 a6ba 63f5 0c3c e173 09bc
000000d0: 1f18 bf3a ada7 1bbc 09f7 d43b 82cd 3cbb
000000e0: b487 a8bc 4bca 7739 d7bf a63c b43c 0e3d
000000f0: 88e7 f8bb 7775 443b 693a 4f3c 3ff6 983b
00000100: 0c4c 88ba 1b2a 4f3c 6089 563c 964b 9dbc
00000110: 446b 06bc bf56 46bc 96d4 b93c d48e 45bb
00000120: 1668 963a 1d76 863c da50 97bc 0eaf fbbc
00000130: 9ebd a1bc 1da8 013d 318e 29bc 72a9 8dbc
00000140: e19b fc3b 1b0c 33bc 0d2b c23b fcde cebb
00000150: 8265 46ba 0724 ac3c acc6 163c fdba 14bc
00000160: 643e ccbb 1a5b d53c e72a 06bc 085d 98bc
00000170: 17b4 53bb b91f 72ba 9af1 4abb 9fce 123c
00000180: 4d92 adbb 318e c2bb 2e62 d83b 79c4 953a
00000190: 6216 b93b e81d 1bbb 6b73 343b 1eca f23b
000001a0: b793 98ba 6e06 b73b 79ba 02bc beed 1b3b
000001b0: 683f e43b 33f7 1fbb f25f 3f3b 8fa0 fcbc
000001c0: 134f 73bc 4e7d 9e3c 18b2 02bb 92c5 69bc
000001d0: 2cac 0c3c e61c c8bc c557 edba 4987 3a3b
000001e0: 3186 28bc 77ea babc 6ff1 913b 1cb8 fc3b
000001f0: 3178 19bc 6467 87bc a549 ab3c 7451 35bc
00000200: 374e 1abc c17a 483c 8ba1 05bc 70d2 34bc
00000210: dc61 e83b 5f25 913b 328a 9abc 6d38 b13a
00000220: 4c4f 96bc d223 c33c 23b2 8a3c 0ccf 3a3a
00000230: d385 dfbb 6ce3 4bbc 25b7 513c 5855 7e3b
00000240: a2ab edbb 0f22 173d 3036 d1bb a0e7 95bc
00000250: ad7c f63b f060 47bb 24e6 3db9 4db3 10bc
00000260: 5451 2d3c 212c 093b 156e edbb f310 2d3b
00000270: d047 883b c9d4 e1bc e60e dcbb 171c 33bc
00000280: 79da abbb af6e 40bc 8342 803c ed92 993c
00000290: 0eb3 a53c 140a c23c b3b4 a5ba 5084 03bc
000002a0: 70ce 38bc ac1d b23a 7700 8d3c 63c1 44bc
000002b0: e216 15ba 2ee1 e3bb c3bf 13bd 6f86 86bb
000002c0: d5f4 cd39 da2d b93a c178 15bc 4c54 c23b
000002d0: 18ad 283c 0f1b ae3b f477 a0bc b894 2c3b
000002e0: 7b81 40bc 5803 a43b 9f26 62bc eaea 513b
000002f0: b8b9 f23c 6206 13bd 8605 743c e0c0 993c
00000300: a8cf 58bc 0b90 c23b 5bfc 10bc 0d31 a2bb
00000310: 0599 07bc a78c 3e3c 00cb ea3c 0837 803b
00000320: 23f9 1c3b 4481 24bc c999 953c bfac a83c
00000330: 6b88 01ba 774c 223b c99a 523a 27dd e2bb
00000340: cac6 81bc 3db4 673c aca5 293b 1b1b bf39
00000350: 92f3 ba3b ae13 07bd 4f13 9cbb dc12 94ba
00000360: e8ed ce3b c3b9 073c 9b0a 263c 305e b4bc
00000370: 4f03 40bc 6243 8bbb 74ab cabb b618 85bc
00000380: 838f 61bb df08 813c 788e 58bc fb87 3739
00000390: 78b2 03bc 6b4a 50bc b8f5 6dbb a0cf f03b
000003a0: 473a 933b a241 003c a72b 7139 8adc a2bc
000003b0: 4443 53bc 91f8 30bc 6d9d 8039 83aa ab3c
000003c0: 3595 813c dbc5 c83a cde8 8b3b b474 7cbb
000003d0: bad1 96bc effa a43b 4fe8 f1bb 586a 203c
000003e0: 59ca cdbb de8e 143c 76c6 833a 9ed9 e63b
000003f0: bd22 ccbb f59d c83c 2380 d1ba 7ebb d63a
-0.0077122278 -0.013113944 -0.0070134797 -0.010150206 -0.0054139253 0.058217566 -0.009947588 -0.0027500058
-0.00016764688 0.009699472 0.0236074 0.008208661 0.0069460897 0.006445279 0.0007051724 -0.009534754
-0.01605348 0.0012156519 -0.0068191234 -0.00086210505 -0.025544088 -0.02244775 -0.0069683697 0.0038624357
0.0062060347 -0.0015241776 -0.0027868368 0.0013552676 0.013919101 0.0063365554 -0.009058914 0.0055494215
-0.038080096 0.017688382 0.02418962 -0.02038948 0.013398865 -0.017246062 0.027116558 0.008588588
-0.0069436836 0.012172451 -0.012451013 -0.01795922 0.01905989 0.0109085245 0.0020683378 -0.0062331413
-0.0002895754 -0.0012665215 0.008603427 -0.008389444 0.0014579332 -0.009500426 0.0064991754 -0.0028809016
-0.02057252 0.00023631116 0.020355148 0.03472586 -0.00759596 0.002997724 0.012648203 0.0046680267
-0.001039864 0.012644316 0.013094276 -0.019201081 -0.008204285 -0.012105643 0.022684377 -0.0030144947
0.0011475112 0.016413743 -0.01847117 -0.030723121 -0.019743737 0.031654466 -0.0103488425 -0.017292712
0.007709012 -0.010928179 0.005925542 -0.006313203 -0.00075682264 0.021013273 0.0092026405 -0.009077785
-0.0062330235 0.026044417 -0.00818894 -0.018599048 -0.0032303387 -0.00092362944 -0.003096676 0.008960395
-0.0052969814 -0.0059373607 0.006603501 0.0011426351 0.00564842 -0.0023668949 0.0027534615 0.007409348
-0.0011640702 0.0055854833 -0.007979029 0.0023792828 0.0069655664 -0.0024408817 0.0029201475 -0.030838279
-0.014850396 0.01934686 -0.0019942578 -0.014268296 0.008585971 -0.024427842 -0.0018107822 0.0028461984
-0.0102859 -0.02281688 0.00445383 0.0077123772 -0.009367035 -0.016528793 0.02090914 -0.011066783
-0.009418062 0.012236298 -0.008156191 -0.0110365 0.007091744 0.004429504 -0.018864725 0.0013520845
-0.018348359 0.023820791 0.016930645 0.00071261893 -0.006821373 -0.012444358 0.012800013 0.0038808193
-0.0072531262 0.036897715 -0.0063846335 -0.018298924 0.0075221867 -0.003042277 -0.00018110179 -0.008831811
0.010578472 0.0020930844 -0.007245789 0.0026407808 0.0041589513 -0.027567284 -0.006715643 -0.01093199
-0.00524455 -0.011745139 0.015656715 0.018746817 0.020226981 0.023686446 -0.0012642354 -0.008027151
-0.011279687 0.0013589165 0.017212136 -0.012008998 -0.0005687309 -0.0069543337 -0.03607155 -0.004105381
0.0003928306 0.0014128045 -0.009123028 0.005930459 0.010295175 0.005313284 -0.019588448 0.002633376
-0.011749621 0.0050052814 -0.013803153 0.0032030889 0.029629573 -0.03589476 0.014893895 0.018768728
-0.013233103 0.0059375814 -0.008849229 -0.004949695 -0.008276229 0.011630214 0.028661251 0.0039128102
0.0023952208 -0.010040585 0.018261807 0.020590184 -0.00049412873 0.0024764815 0.0008033929 -0.006923336
-0.01584186 0.014142093 0.0025886102 0.00036450554 0.0057053054 -0.032977752 -0.004763044 -0.0011297124
0.0063149817 0.008284035 0.0101343645 -0.022017568 -0.011719539 -0.004249976 -0.0061849896 -0.016247135
-0.0034417815 0.0157513 -0.013217561 0.00017502897 -0.008038156 -0.012713055 -0.003630979 0.0073489696
0.004493031 0.007828148 0.00022999813 -0.019880552 -0.012894455 -0.01080145 0.00024531354 0.02095533
0.015818218 0.0015317755 0.0042696954 -0.003852171 -0.018410552 0.0050347964 -0.0073824297 0.009790979
-0.0062802252 0.009067265 0.0010053653 0.007044985 -0.006229727 0.024489382 -0.0015983622 0.0016382781

base_model.model.model.layers.1.self_attn.q_proj.lora_A.weight f4 [8, 768]
00000000: 023d c0bd d55d e8bc 1b5c a0bd 0e4b d5bc
00000010: dde5 a4bc 72d7 7c3c 947e 813d 6a6e d0bc
00000020: 4d95 063d ebf3 0c3d 9915 ea3d 32e9 7e3d
00000030: f299 dd3b 5680 e1bd 44d3 cbbb 5b5d c1bd
00000040: 5f57 5bbc b5d6 63bd 6c5b f03d 3a15 033c
00000050: d48e 93bb 3150 513c aeca a83d 9246 b03c
00000060: 29e2 793b dfb4 4e3d 8cfb b8ba 6529 94bd
00000070: f485 9b3d 9807 993d 0535 4dbd 0e2b f7bd
00000080: ac47 153e b199 dd3a b09e 92bd 015d bc39
00000090: 1a1c ddbc 4d89 563d 9068 723d 9bf3 4f3d
000000a0: f9a6 0d3d d38b 6bbd 2a0b bc3c c8cf 69bd
000000b0: 4317 283d 4cc3 3fbe 6bac dbbb 1c34 7d3d
000000c0: b0d6 06be 398b 8b3d cb62 093d 7012 43bd
000000d0: f7cd 97bd 0e2d 033d 63de ce3c 74c3 513d
000000e0: 9467 113c 4173 d93c 7621 e7bb 58a7 a23c
000000f0: 8650 f63d 7a4d b33d ad54 893a 2788 b7bc
00000100: 671f 95bd 1b48 0abc b91b 47bd 778e 663d
00000110: af50 50bc 8f9b c0bb b2c9 93bd c083 2c3c
00000120: 5f59 aabb c2ba d53d 2118 35bd e15f f83a
00000130: 4d92 63bb 20c6 0cbd 2cc5 92bc 70de 973d
00000140: 6968 0f3d 096f a8bd 6ec8 f4bc 71f7 3e3d
00000150: 4e9c a7bd 1551 573d d54b 0d3d c230 103d
00000160: 642e ecbb b361 b83d 18fd 333d 73a4 4c3d
00000170: d2ab cb3c d242 c53c 649d 5a3d 17a3 87bd
00000180: 73f2 09bc f3c4 5abc 2ed2 87bc 0620 afbd
00000190: 1895 c3bd 6cb7 f33d 93a2 d43d b05b a0bd
000001a0: 8bff 783d 7109 9dbc 242f cf3c 38e8 ef3c
000001b0: da16 63bd 8550 c4bb 2cc1 e9bd b533 e1bc
000001c0: ec53 b1bd 55b6 53bd 40a1 933c b028 2fbd
000001d0: 41ea c23c d8f4 d73c 8641 72bd e407 8a3c
000001e0: 0a5d 67bc 93a2 6bbd 5680 d0bc 8abe c33c
000001f0: acc2 adbc bfd5 7fbd d9d9 dcbc 139e a5bc
00000200: 5d85 3dbd 83eb afbc 3db1 68bc 8a32 29ba
00000210: 7800 2b3d 5d69 afbd afa3 06be 4a67 28bd
00000220: d6f1 75bc d65a 4fbc 886d 3bbc b545 85bd
00000230: f0f7 f73d f339 193b 1a2c c93d bcaf 79bd
00000240: 02c6 2d3c 973c 583d 03a2 8c3a 482c 403d
00000250: 9eeb 403d 9a1c 973d 8b3a 6ebb 3829 b3bc
00000260: e8e2 da3d 0a68 2a3d 690b 6ebc d072 8e3a
00000270: 2cc8 11bd 4099 4abc 7365 9abd 4299 8ebd
00000280: a691 95bc d33e 2f3b 7f5f 4b3c 6319 af3c
00000290: 6124 82bc 24d6 c93d 1fb0 04bc 91f9 4abd
000002a0: 6986 88bd 6e16 50bd 7796 c5bc cf3a febc
000002b0: 9f10 fb3c a449 7cbd a133 cabc 2bab d2bc
000002c0: 5459 693b 920c 70bd 501e 193d e5fa 88bb
000002d0: fec9 d93d ee5d 053d 0511 63bd ec35 bebc
000002e0: 2347 61bd 03af 3abd c337 353c 4a90 be3c
000002f0: 43b6 1fbd c51b 9bbc 2135 813b c866 ce3d
00000300: f212 ed3d 95d6 89bc 404d 0a3c 7d6e 783c
00000310: ef9b 67bd bd1b 32bd 3eb7 91bc b9a1 843d
00000320: a4e1 bf3b d1cc 0d3d 4250 893c 0f3c 8bbb
00000330: a45a 8ebc e5bb c0bd 7d65 343c 542a 10bd
00000340: 9ba7 6f3c 8c69 4abc aa61 d83c 2728 23be
00000350: 1200 8ebd cf21 003d 80f2 593c 70e5 0b3d
00000360: 8242 033e 2b3e 80bd 12d3 ecbd 85d6 87bd
00000370: 28f0 62bd c703 e73c 9008 b13d 4402 4fbc
00000380: a5e4 a93c 3da3 bdbd 799d 033d b212 6f3d
00000390: 2014 29bd cb88 903c 6d10 eabc d47d 39bd
000003a0: 222a c0bc 75b9 eb3c 27d2 a53c d8f8 e1bb
000003b0: 1349 10ba 2ea2 d33d 7e87 8e3d 9df0 973c
000003c0: da0b 553d cc16 f83b 8ea9 7e3d 0942 1e3d
000003d0: e1e7 58bd 32a1 84bc 8453 d63d 2eb4 653d
000003e0: c51c b9bc ec8c 5c3b 9cf8 5b3d 346d 673d
000003f0: f0de 55bd 0cb5 0c3c 2775 47bc cf73 52bc
-0.09386636 -0.028365055 -0.07830068 -0.026036765 -0.020129139 0.015432226 0.06322971 -0.025443275
0.032857228 0.034412306 0.11429901 0.06223411 0.0067627365 -0.11010806 -0.006220253 -0.09441634
-0.01338753 -0.055624682 0.11736187 0.008000666 -0.0045031104 0.012775467 0.08241783 0.021518026
0.0038129187 0.05046546 -0.0014113053 -0.07234458 0.07593909 0.074721515 -0.05009939 -0.12068759
0.14578122 0.0016906766 -0.071591735 0.00035927448 -0.026990939 0.052377034 0.05918175 0.05076943
0.034583066 -0.057506394 0.022954542 -0.05708292 0.04103781 -0.18726844 -0.0067039034 0.061817273
-0.13167834 0.06813664 0.033541482 -0.047625005 -0.074123316 0.03202539 0.025252527 0.05121179
0.008874793 0.026544215 -0.0070535494 0.019855186 0.120270774 0.08755012 0.0010477506 -0.02240379
-0.0728138 -0.008440043 -0.048610423 0.05628821 -0.012714549 -0.005877919 -0.07216205 0.0105294585
-0.005198642 0.10436012 -0.044212464 0.0018949473 -0.0034724653 -0.034368634 -0.017916285 0.074154735
0.035011683 -0.08224303 -0.029880729 0.046622697 -0.0818411 0.05256756 0.034496147 0.03520275
-0.0072076786 0.0900301 0.04394254 0.04996152 0.024862204 0.024079714 0.053372756 -0.06622904
-0.008419621 -0.01335262 -0.016579714 -0.0855103 -0.09549922 0.11900219 0.10382571 -0.07829988
0.06079058 -0.019169541 0.025291033 0.029285535 -0.055441715 -0.005991044 -0.11413798 -0.027490476
-0.08658585 -0.051687557 0.018021226 -0.042763412 0.023793342 0.026361868 -0.05914452 0.016849466
-0.014121303 -0.05752809 -0.02545182 0.023894567 -0.02121099 -0.062459704 -0.026959347 -0.020216977
-0.046269763 -0.021474605 -0.014202413 -0.0006454369 0.041748494 -0.08565018 -0.13148378 -0.04111413
-0.015011271 -0.012655934 -0.0114396885 -0.06507436 0.12107837 0.0023380488 0.09822865 -0.06095861
0.010606291 0.052792158 0.0010729436 0.04691723 0.047099702 0.07378502 -0.0036350812 -0.02187024
0.1068781 0.041603126 -0.014529088 0.0010867957 -0.03559129 -0.012365639 -0.07538881 -0.06962825
-0.018257927 0.0026740327 0.012412905 0.02137441 -0.015886487 0.09855297 -0.008098631 -0.04955441
-0.06666262 -0.05080264 -0.024119599 -0.031033901 0.030647574 -0.061593667 -0.024682822 -0.025716385
0.0035606222 -0.058605738 0.037382424 -0.0041802996 0.1063423 0.03256028 -0.055436153 -0.023219071
-0.054999482 -0.04557706 0.011060658 0.023262162 -0.038992178 -0.01893414 0.003943101 0.10078198
0.11575879 -0.016825953 0.008441269 0.015163061 -0.056545194 -0.043483485 -0.017787572 0.06476159
0.005855756 0.034619156 0.016761903 -0.004249103 -0.017377205 -0.09410838 0.011010525 -0.035196617
0.014627363 -0.012354266 0.026413757 -0.15933286 -0.06933607 0.031282242 0.013302445 0.034154356
0.1281834 -0.062618576 -0.11563696 -0.06632713 -0.055404812 0.028200043 0.08644211 -0.0126348175
0.020738909 -0.09259651 0.0321326 0.05836744 -0.04127896 0.017643353 -0.028572286 -0.045286015
-0.02345759 0.028774956 0.02024181 -0.0068961196 -0.0005504053 0.10333668 0.06959437 0.01854735
0.052013256 0.007571077 0.06217342 0.038637195 -0.052955512 -0.016190145 0.10465148 0.056080036
-0.022596726 0.0033653332 0.05370389 0.05650063 -0.052214563 0.008588087 -0.012173927 -0.012844994

base_model.model.model.layers.1.self_attn.q_proj.lora_B.weight f4 [768, 8]
00000000: bb3b 20bd f866 213d 259f e0bc 5d91 163c
00000010: 21d3 5e3b 7df7 e8bb 180a f73b c820 fa3b
00000020: 7bd5 54bd fb64 e53b 62ef f03c 8e70 363d
00000030: 568e 4a3d 1bec 9a3b ceca 3c3d a4a9 31bd
00000040: 1286 9fbd 3749 e03d 31b5 a73a be80 6b3d
00000050: 4b1b 49bd 8849 683d 73a4 d43c fc3b 7ebd
00000060: a2c3 163d 1971 d83c 1b8d 32bd e31c 84bd
00000070: c104 f53d 7eea 673c 1e8e 5a3b f7d6 4b3d
00000080: 3479 0b3c 9445 0bbc 8392 823c cd26 a0bd
00000090: 778d 0d3d 753d b6bd d07c df3c 1501 5b3d
000000a0: 0ffb 2c3d ceec 1abd 8018 90bc e4fc fc3c
000000b0: ef63 0c3e 2afa c6bc 4033 5a3c 33d3 773d
000000c0: 4c63 483c c1f7 8b3d c301 3fbd 6bbf 3d3d
000000d0: 0de1 2c3c 634f 633d 6988 00bc 067b 56bd
000000e0: 9779 a5bc e9fd b13d 3c2d 503d fbc2 c93d
000000f0: 833a 183d 98cc f33c a500 e7bc 17a5 babd
00000100: 07a8 7bbd 2220 893d 6a54 d1bc a252 28bc
00000110: 74e0 083d dd2f 143d a14a f0bc 90ae e93c
00000120: 461a ad3c 4467 a1bb fd21 833c ee51 3dbd
00000130: 16a2 41bd c361 99bb 180a 143e b927 163c
00000140: 9a94 be3d 744e f8bd 9340 113d 390b 3abd
00000150: 56f0 1ebd 105e cbba 1965 1f3d 5504 a63d
00000160: a77e 9a3c 8591 30b8 0a21 ad3d 5a6f 26ba
00000170: c89a 01bc 780e a33d 5eee f4bc 7fe0 4e3d
00000180: bb35 8b3d 00b0 4a3d 4e7f 9cbc e86d 6b3d
00000190: 0a74 503d 0bcd 14bc 547b e3bc b341 b93c
000001a0: 1881 4c3d b441 d33d 6a47 7cbd 5774 803c
000001b0: d771 16bc 9445 22b9 6bf3 8a3b 0509 e93b
000001c0: 6d2b 8dbd 49a2 d4bc bfad bcbd 4988 fcbc
000001d0: 9a34 58bc 3b8e 8e3c 5636 db3c 3242 5cbd
000001e0: 24a9 3dbd 28e9 13bd fc31 673d a4a4 68bd
000001f0: 6da3 1bbc d6d2 7e3c 1e17 fabd febc 2abd
00000200: ca9e 64bb c980 1bbd 90f2 d6bb 0d73 90bb
00000210: 9a85 edbb 3b7c fa3d 1092 d43b f330 d93c
00000220: ef12 d0bc e62e 03bd ba53 d73b 1d75 cdbb
00000230: faca c33d ea90 6bbd bea8 bf3c fb2d 9a3c
00000240: 811d a93d 7e43 c0bd becd db3c b240 c3bd
00000250: 1486 10bd 7dd9 a0bc 9d9f 06bd f9e1 803c
00000260: 59af 8d3d 90f3 c0bd a0da 303d f509 51bd
00000270: 8302 733d 8958 25bd 8b2e 823c 28d7 133d
00000280: 0adf ca3c 4477 723c e207 0139 d527 553c
00000290: 7862 fb3d 635f 32bd 675d 4d3d 1cbe 18bd
000002a0: c0e8 353d 4e69 563d f227 263d 34e4 ae3c
000002b0: 527e 21bd 4345 973c e032 92bd a2d0 b2bd
000002c0: 3798 0ebd f8b3 b7bd 21c1 0b3c b89e 3d3a
000002d0: f698 a13d 1a4d 7f3c 09ed 91bc bccc bdbb
000002e0: 3880 ffba f73a 38bb b027 00bd 9244 5fbc
000002f0: 8557 863d 7148 993d 5f6b 573c 1862 0b3d
00000300: ee28 1d3d 2bbc 553d 8954 d63c 9f2d 15bc
00000310: f239 be3c 1c73 383d 21d1 a83d ded9 073a
00000320: 9adb 203d 75e3 963d d08c 373c 894e 0cbc
00000330: 6280 88bd 0df7 b0bc 8587 80bd 0c1c 0ebd
00000340: 89e7 0e3e 675f 98bd 871d 8c3c 8f0d b2bc
00000350: 83d1 b6bd 545a f9bc 28a9 863d 8f64 123e
00000360: a08f e3bb 0887 023d 35ed fc3c e9aa 233c
00000370: 44cf 0cbc 8745 e7bb ceb9 83bc c0a2 49bd
00000380: 8c96 0bbe 0cec 09bd 5073 3fbd 866d b7bc
00000390: 4196 f63c 07ae 4d3d b6f4 9c3c 5ebf e2bd
000003a0: 6685 b7bc 889a b83c 889c ddbc 3193 0d3d
000003b0: 6184 253d bd8d 01bd 10b2 0fbd 6363 5d3d
000003c0: 42c9 2dbd f7cb 263d 2d7c 953c ab63 3dbd
000003d0: 0bc7 c8bc 0981 c43c 2e0a 8fbd 1dc3 d5bc
000003e0: 42ab 303d c0f3 b13b cab1 13bc 35a5 c3bc
000003f0: 69f0 b6bc d9d9 0ebd d71b 2dbd 30de 09bd
-0.039119463 0.03940484 -0.027419636 0.009189931 0.0034000354 -0.007109581 0.007539045 0.0076333024
-0.051961403 0.007000563 0.029411022 0.044540934 0.04945215 0.004727853 0.046091847 -0.043374673
-0.07789244 0.109514646 0.0012795088 0.057495825 -0.049098294 0.05671075 0.025957322 -0.062068924
0.036807664 0.026421117 -0.0435916 -0.06450822 0.11963797 0.014155028 0.0033348869 0.049765553
0.008512784 -0.008500475 0.015939003 -0.07819901 0.03455874 -0.08898441 0.027281195 0.05346783
0.042231616 -0.03782349 -0.017589808 0.030882306 0.13709997 -0.02428921 0.013317883 0.06050415
0.0122307055 0.06834365 -0.04663254 0.04632513 0.010551703 0.05549563 -0.007845023 -0.052363418
-0.02019958 0.08691008 0.05082439 0.09851643 0.037165176 0.029760644 -0.02819855 -0.0911352
-0.06143954 0.06695582 -0.025552947 -0.010273607 0.03341718 0.03617846 -0.02933246 0.02852562
0.021130692 -0.0049256403 0.016007418 -0.046220712 -0.047273718 -0.0046808436 0.14456975 0.009164744
0.09305687 -0.12124339 0.035461973 -0.04542086 -0.03880342 -0.0015515704 0.038914774 0.08106295
0.01885922 -4.2097196e-05 0.08453567 -0.000634899 -0.007910438 0.07961744 -0.029898819 0.050507065
0.06797358 0.049484253 -0.019103672 0.05747786 0.050891913 -0.009082089 -0.027768768 0.022614336
0.0499278 0.10315266 -0.061591543 0.015680475 -0.009182415 -0.00015475444 0.0042404435 0.007111671
-0.068930484 -0.02595629 -0.09212827 -0.030826705 -0.013196135 0.017401805 0.026759308 -0.053774066
-0.046303883 -0.036111027 0.056444153 -0.05679764 -0.009499413 0.015553197 -0.122114405 -0.041684143
-0.0034884685 -0.037964616 -0.0065596774 -0.0044082464 -0.0072485926 0.12230726 0.0064871386 0.026512599
-0.025399653 -0.032027148 0.0065712603 -0.0062700645 0.09560199 -0.057511248 0.023395892 0.018820753
0.082575805 -0.09387873 0.026831504 -0.09533824 -0.035284117 -0.019634956 -0.032867063 0.015732752
0.069182105 -0.09421456 0.043177247 -0.051034886 0.059328567 -0.040367637 0.015891334 0.03609386
0.024764556 0.014798943 0.00012305335 0.013009985 0.12274641 -0.043548 0.050137904 -0.037290677
0.04441142 0.05234652 0.04056544 0.02134905 -0.03942711 0.018465644 -0.0713861 -0.087312
-0.034813132 -0.08969873 0.008529932 0.0007233429 0.07890503 0.015582347 -0.017813222 -0.0057922285
-0.0019493168 -0.0028111318 -0.03128785 -0.013627188 0.06559662 0.0748452 0.013148158 0.034029096
0.03836911 0.052181404 0.026163356 -0.009105115 0.02322099 0.04503165 0.08243013 0.0005182306
0.03927193 0.07367603 0.011203006 -0.008563646 -0.06665112 -0.021602178 -0.06275848 -0.034694716
0.13955511 -0.074400716 0.017103923 -0.02173498 -0.0892668 -0.03043858 0.06575233 0.14296173
-0.0069446117 0.031867057 0.030874828 0.009989479 -0.008594338 -0.007057849 -0.01607981 -0.049227476
-0.13631648 -0.033672377 -0.04674083 -0.022391092 0.030100944 0.050214794 0.019159656 -0.11071657
-0.022402477 0.022534624 -0.027052179 0.0345642 0.04040945 -0.031629313 -0.035081923 0.05404986
-0.042428263 0.04072186 0.018247688 -0.04623763 -0.024508974 0.02398731 -0.069843635 -0.026094014
0.043132074 0.0054306686 -0.009014556 -0.023882488 -0.022331433 -0.034875724 -0.04226288 -0.03365916

base_model.model.model.layers.1.self_attn.v_proj.lora_A.weight f4 [8, 768]
00000000: e0ac d33b 36b6 8b3d 92ed 813d f7ba d13b
00000010: 53a8 f33c 277e af3c a1cd ed3c a7d1 afbc
00000020: 45a7 c4bb d03e 193d 6369 113b a1ea 3cbc
00000030: 1622 18bc e365 6c3d dc87 513a a3f7 62bc
00000040: 51b7 3bbd f2e1 c6bc 4e06 dfbc 609c 1d3d
00000050: e049 843c 1f74 b53b 69ad 20bd 5deb 0ebc
00000060: f8d8 71bc fe05 2e3d deb4 54bc 2f30 a5bc
00000070: a845 f9bc 2728 cd3b 0634 e8bc 18b4 46bc
00000080: 7d40 e5bb f2f9 2c3c 86f8 103d 7a6e 17bd
00000090: 02b2 6ebc 7a55 903c 173e 893c 7959 debb
000000a0: c061 1fbc dd72 853b 1ede cabc 6cbb 1b3c
000000b0: 474d e13c a2ff 8ebc 37a1 80bc 5d3f 0c3d
000000c0: b2b2 bcbc 1c03 a73c e409 a8bc 0d00 8a3c
000000d0: 903d 203c def2 703c 1883 493d 8e28 65bc
000000e0: 3f3e 31bc 79c1 a3bc f67e 03bd db1b 23bc
000000f0: 689c 2a38 2421 86bc 3817 33bb 5543 83bc
00000100: 5fbe d9bc 9e62 f2bc 1c1e 123c 18c4 2ebd
00000110: 8d87 84ba 1120 3abc ad02 3fbc 7fbd 463c
00000120: 9fbd 16bd fa9f a839 1a9c 1e3c a414 6e3d
00000130: f038 5e3a 9e7a 5a3c 8631 36bb 5b38 08bd
00000140: 7e33 443c ea49 be3c 7ad0 793b 8f06 b73c
00000150: 723e 353d eefd 54bc 18e8 b43b 804f f1bc
00000160: d5a1 623b 56c2 db3c 8360 063d 0de2 ca3c
00000170: adf2 ec3c c08a 0e3d d652 8b3d 0316 b33c
00000180: 3e67 80bb 1a3d 3a3b 7b89 6e3c 2e86 0bbd
00000190: 8360 c63c 63d2 e9bb f65a 27bc 1626 98bc
000001a0: f465 67bc ab72 b33c 6518 9fbb 5820 acbc
000001b0: fb73 33bb fe87 cc3c d4ba 2d3d e741 25bc
000001c0: 68f2 683d 9de0 75ba 2925 a6bb 2894 9d3c
000001d0: 6bb3 cc3c f4e3 cdbc 65e7 2c3c 00bf f0bb
000001e0: ffbe 073c f048 b4bb 485d 8f3c a768 d63c
000001f0: aab4 00bc 0962 45bc 6810 b2bc adb0 f2bc
00000200: dd59 853d 5b5d e13c b092 323d f1c5 89bc
00000210: 79cf c53b 269b 63bb 5758 ed3c c707 a6bc
00000220: 4a72 0d3d 40d1 1bbd 4efb d3bc ee4d 9b3c
00000230: d44b 063c bd68 00bc 2576 02bd 0b69 e5bc
00000240: f7db 24bd 7d4d 283d 307a 993c cdfb e23c
00000250: 1458 e039 739b 1ebd 1bf9 20bc 6118 b4bc
00000260: dce6 863c 8c7f d93c d27a 0fbd dfb1 083c
00000270: 1e64 273c fb7c bd3c 16b8 35bc 0119 56bd
00000280: 1072 a2ba 4719 db3b 4933 143d d527 013d
00000290: 6791 aa3c e994 fcbc f1a1 f7ba e7e5 063c
000002a0: 6515 0cbd 0330 a9bc 3a63 f1bc 32ae aebb
000002b0: 597c c9ba a417 c0bb e398 e3bc ff63 13bd
000002c0: 43b2 13bd 64ba 4e3b 1824 043d 2e76 2dbd
000002d0: 2f6f 4dbc a0de e83c 1495 273d bc7b f23c
000002e0: 0066 093c ebdc 993b c499 1a3c 1fb3 b739
000002f0: 0947 983d 5719 44bd 6ae5 1ebc 948f 38bd
00000300: 1d47 0abc 8d54 1ebd a30e a9b9 75fd 883c
00000310: 38ca 303c 6b01 aabb 3c21 bd3c ae10 68bd
00000320: 5e8b aa3c 4cea 90b9 b918 88bb 0fc2 0ebd
00000330: 8eae ccbc ee2d 8c3b 3c85 35bd 22af 09bd
00000340: 75b1 52bd e81c 5a3c f961 66bb efb5 45bb
00000350: f247 c3bb 454f f13c ee70 ac3c 7b83 99bd
00000360: 2072 093c 5ca0 503d 55cc c9bc 3f9e 8d3c
00000370: a3c3 86bc 73c9 383b 759c 813d 1a30 f2bc
00000380: efe5 87bb d0fa b1bc 74a5 bfbc ceeb 273b
00000390: 728c 2f3c ee98 c9bc c33b b63c 7863 da3b
000003a0: 7be2 703c 7347 a93b 7d82 ce3a 9dbb 9abd
000003b0: a9b3 bfbb 36f5 383d 0644 6d3c ccf2 613c
000003c0: 3bed e8bc 9149 35bc a9ab 9dbc 1a45 7e3c
000003d0: d110 663c 98c5 513d 24ed 4cbb b9d9 d13c
000003e0: 9f2b 74bb 246c 16bc d1f3 9d3c 6422 6eba
000003f0: e66b e63c 194c 743d 6e11 943c 677e 11bc
0.0064598173 0.06821863 0.06344141 0.006400462 0.02974335 0.021422459 0.029028716 -0.021462275
-0.0060013854 0.03741342 0.002218806 -0.011530549 -0.0092854705 0.057714354 0.0007992962 -0.0138529865
-0.04582912 -0.024277661 -0.027224686 0.03847921 0.016148508 0.0055375244 -0.039227877 -0.008723107
-0.014761202 0.042486183 -0.012982575 -0.020164577 -0.030428723 0.00626089 -0.02834512 -0.012127899
-0.006996213 0.0105576385 0.03539326 -0.036970593 -0.014568808 0.017618883 0.01675324 -0.0067855683
-0.009727895 0.0040725307 -0.024764117 0.009505134 0.027502669 -0.01745588 -0.015701873 0.034240115
-0.023034427 0.020387225 -0.020512529 0.016845727 0.009780303 0.014706342 0.049197286 -0.01398672
-0.010818063 -0.019989716 -0.0321035 -0.009955372 4.0676823e-05 -0.016373225 -0.0027327072 -0.016023317
-0.026580034 -0.02958804 0.008918311 -0.04266748 -0.0010111198 -0.011360184 -0.011658353 0.01213014
-0.03680193 0.0003216265 0.009680772 0.058125153 0.0008477112 0.013334898 -0.0027800514 -0.03325687
0.011975167 0.023228604 0.0038118646 0.022341995 0.044249006 -0.012999995 0.005520832 -0.029456854
0.0034581323 0.026826065 0.032806884 0.024765993 0.02892431 0.03480029 0.06802909 0.021861082
-0.0039185574 0.0028417767 0.014559145 -0.03406351 0.024215942 -0.0071356758 -0.010214558 -0.018572848
-0.014123429 0.021905264 -0.004855203 -0.021011516 -0.0027382362 0.02496719 0.0424145 -0.010086513
0.0568718 -0.0009379478 -0.005070348 0.019235685 0.024987897 -0.02513311 0.010553216 -0.0073469877
0.008285283 -0.005501859 0.017500535 0.026172949 -0.007855574 -0.012047299 -0.021736339 -0.029625261
0.06511281 0.027510336 0.043596923 -0.016818019 0.0060366956 -0.0034729927 0.028972788 -0.02026738
0.034532823 -0.038041353 -0.025876667 0.018958058 0.00819679 -0.007837472 -0.031850953 -0.02800419
-0.040248837 0.041089524 0.018735021 0.027707959 0.00042790233 -0.038722467 -0.009825016 -0.021984281
0.016467504 0.026550077 -0.03502924 0.008343189 0.010216741 0.023130884 -0.011091253 -0.05226994
-0.0012393612 0.006686363 0.03618172 0.031532127 0.020821286 -0.030832725 -0.0018892867 0.008233524
-0.03420009 -0.020652777 -0.02946626 -0.0053308243 -0.0015372141 -0.005862193 -0.027782863 -0.035984036
-0.036058675 0.0031544203 0.032260984 -0.042349033 -0.012538715 0.028426468 0.040913656 0.029600017
0.008386135 0.004695525 0.009436075 0.00035037936 0.07435424 -0.04787573 -0.009698251 -0.0450588
-0.008439806 -0.038654853 -0.00032245097 0.01672242 0.0107904 -0.0051881573 0.023087136 -0.056656532
0.020818409 -0.00027640385 -0.004153338 -0.034853037 -0.024985578 0.004277936 -0.044316515 -0.033614285
-0.051438767 0.013312556 -0.003515361 -0.0030168255 -0.0059595043 0.029456744 0.021049943 -0.07495781
0.008389026 0.05093418 -0.024633566 0.017287372 -0.016450709 0.0028196245 0.0632867 -0.029563952
-0.0041472833 -0.021726042 -0.023394324 0.0025622728 0.010714637 -0.024609055 0.022245293 0.0066646896
0.014702435 0.005165988 0.0015755441 -0.07555316 -0.0058502746 0.045155726 0.01448155 0.013790797
-0.028433433 -0.011064903 -0.019246893 0.015519405 0.014042095 0.05121383 -0.0031269277 0.025616514
-0.0037257446 -0.009181056 0.0192813 -0.0009084104 0.028127622 0.059642885 0.018074717 -0.008880234
