lora_smol_llama_finetuned/checkpoint-1850/adapter_model.safetensors (safetensors, 494624 bytes, 24 tensors)

base_model.model.model.layers.0.self_attn.q_proj.lora_A.weight f4 [8, 768]
00000000: 3a39 1c3d 56f1 8cbb 5fc6 64bc 93ed c23c
00000010: 7ef0 8c3b 509b 37bd 8414 f83c 9d88 56bd
00000020: 4eaf 723c 1cc6 32bd 5c25 07ba 7da8 f3bc
00000030: 0875 123c d592 9dba a663 efbc c056 84bd
00000040: 7879 413c 4515 0cbb b0b3 23bd 0edb e6bc
00000050: 16ef a43c 64fa 4bbd e314 2fbd 9b73 293d
00000060: 2c1d bfbc 34c9 c03b ee7d 37bb 3b26 893c
00000070: 4c60 1f3d d338 bb3b 1b7d 9dbb fcd5 e83c
00000080: f686 843d 12cb cf3c ea1d 75bd 597a 273b
00000090: 3bf1 8a3c a1b1 323d 86db 14bd f281 3dbc
000000a0: 7bd5 c33a 5843 61bd 4464 ddbb f387 71bd
000000b0: 6d61 bebc 3685 6b3c 8aea f9bb 9c31 53bc
000000c0: 0f28 e4bd 54d2 8e3b ac3e 813c 00be a8bc
000000d0: ab36 ad3d f8f5 5e3d 127d 783c 043d 473d
000000e0: e54f 953d 53b5 e8bc 7885 b7bd f9da 4dbd
000000f0: d956 b3bc 7214 333d 52f7 8b3c 0546 443c
00000100: f0ed ab39 b43e 143d 67f2 a2bb 08a6 fe3c
00000110: 08f0 97bc b23d 9f3d 099d f23c 7398 87bd
00000120: 7b06 463d d960 953d 2af5 3f3d c5c1 1dbd
00000130: cc22 753c 1d75 043a 4b5d 64bd f933 04bc
00000140: 3cb2 adbb 8992 2d3d 1994 1a3c 100b 9fbd
00000150: f4d2 d0bc c189 4cbd 2fce 3abd 51ff 443b
00000160: 263b d73c e708 8f3c 3e38 d8bc 1d71 633b
00000170: 680a 3b3d d423 833d e62c 70bc d567 a0bd
00000180: e087 81bc 931c 323d 5a80 3f3c 1288 873c
00000190: 09e2 05bd ad77 2abd f1e4 723c dcb9 f1ba
000001a0: 5849 b3bb 6629 113d 5eb0 7d3b 80c6 633d
000001b0: b84a b83c cf9a fb3c eae5 ebbc aaf7 d7bc
000001c0: 0671 0bbc edc2 14bd bb12 70bd cb9a b93c
000001d0: 0a8c 113d 4ed4 78bd de1c ddbb 2da1 21bd
000001e0: 12ac 4d3c 8b44 aa3c 4f5b 35bb 312e e2bc
000001f0: 592c 1dbc 7c7b 893d f86d 44bc 8f7a 003d
00000200: 3b8a 4a3d 4a14 9c3d 4a02 79bd 5ea9 02bd
00000210: 5db3 07bd cfa4 21bd 75ca 063d 29ab c3bc
00000220: ee08 033d 940e 08bd f481 7e3d 9ebb c63c
00000230: 9da8 abbc 342f aa3c 8c9d 2e3d 7a01 8d3c
00000240: ac5f 083c a3ae c0bb eedd 053d f891 a93d
00000250: 63aa 3b3b ff01 39bc a66b 543c 0e98 df3b
00000260: 4fa2 9c3c 1053 f63c 60a9 1dbd 9a09 4cbd
00000270: b235 f23a 48bc 253d 9c9d 5bbc bbb2 51bc
00000280: 28af 003c 1eeb 4fbc 6e63 adbb 5b76 7c3d
00000290: f360 0bbc 2195 353d 046f adbb 96e9 3ebd
000002a0: d615 9b3c 86a1 91bc 84dd bfbc c856 773d
000002b0: 3436 9cbb 758f 153d 4aca 92bd e82b a53c
000002c0: 9cd4 893d 0a5b b23b 3cba 1f3d 0726 cbbc
000002d0: 1d91 ce3a 48ba 8f3c 4e97 2b3d 98a9 23bb
000002e0: d696 c33d 997e 483b 6637 ffbb 275f 803c
000002f0: c1c2 903d be92 b33b a6e3 663b 4387 24bd
00000300: 7925 8dbc 7e71 70bd 93df c3bb a94d 71bd
00000310: 3cb0 82bd 12dc edbc 9cac 0b3b c02f dfbc
00000320: f4c5 393d dcf2 1c3d 8cd2 263d 4792 333c
00000330: 3b19 3c3c e97c 87bc 108a 0abd 6140 b63b
00000340: 5d81 7dbb f67e 763c 33f6 c33b a9a5 113d
00000350: ce98 643d 5b9c bebc 661f d9bc 3f86 6ebc
00000360: 51dd 513d 6923 553d 2874 0c3c 4109 da3c
00000370: fb81 433c 680e 4cbd cf73 16bd 430d a93d
00000380: f7ea 24bd af83 63bc 5979 5c3d 9aa0 b5bc
00000390: dc24 6ebd bc55 60bc 7eda 13bc 1da5 9a3c
000003a0: b342 cf3c d6b7 05bc 5d99 bd3c 570f 09bd
000003b0: 5a32 15bd ed85 033d 6a48 0bbd 6db0 bcbc
000003c0: ec17 443d 409f 3fbd aee9 31bc 7e59 52bd
000003d0: 8928 933c ff64 e6bc 3da4 e33a fb79 25bd
000003e0: 55c0 40bd 85ee d23b 2d20 6dbd 01a1 a53d
000003f0: 733d 063d e83d a93d 6a7c 203d e545 673c
0.038140513 -0.0043012304 -0.013963311 0.023794925 0.00430113 -0.044825852 0.03028322 -0.05237638
0.014812304 -0.043645963 -0.0005155408 -0.029743427 0.008939035 -0.0012021909 -0.02922232 -0.06461859
0.011808746 -0.0021374982 -0.039966285 -0.028180625 0.020133536 -0.049799338 -0.04274453 0.041370016
-0.02332934 0.0058833603 -0.0027998644 0.016741863 0.038910195 0.005713561 -0.0048061735 0.028422348
0.06471054 0.025365386 -0.05984298 0.0025555103 0.01696073 0.04362643 -0.036342166 -0.011566626
0.0014940941 -0.054995865 -0.0067563374 -0.058967542 -0.023239816 0.014375022 -0.007626836 -0.012890246
-0.11140453 0.004358569 0.015776955 -0.020598412 0.08457693 0.054433793 0.015166538 0.048642173
0.07290629 -0.028406775 -0.08961004 -0.050257657 -0.021891998 0.04372067 0.017085705 0.011979585
0.0003279294 0.03619261 -0.0049727443 0.03108503 -0.018547073 0.07775439 0.029615896 -0.06620874
0.048346024 0.07293863 0.046864666 -0.03851487 0.0149619095 0.00050528516 -0.055753034 -0.008069032
-0.005300788 0.042376075 0.009434723 -0.07765782 -0.025491215 -0.04993606 -0.04560679 0.0030059407
0.026273321 0.0174603 -0.026394006 0.0034704872 0.04566422 0.06403318 -0.014659142 -0.078323044
-0.01581186 0.04348428 0.011688316 0.016544376 -0.032686267 -0.041618038 0.014825092 -0.0018442231
-0.0054713897 0.03543987 0.003870986 0.055609226 0.022496566 0.030713467 -0.028796155 -0.026363213
-0.008510834 -0.03631871 -0.058611613 0.022656819 0.035533942 -0.060749345 -0.006747826 -0.03946035
0.012553232 0.020784637 -0.0027672832 -0.027609916 -0.009593093 0.06713006 -0.011989109 0.03136688
0.049448233 0.07621057 -0.0607932 -0.031899802 -0.03313004 -0.039463814 0.03290792 -0.023885326
0.031990938 -0.033217028 0.06213565 0.024259385 -0.020954425 0.020774461 0.042630717 0.017212618
0.008323591 -0.0058801933 0.03268235 0.082797945 0.0028635494 -0.01129198 0.0129651185 0.0068235463
0.019120364 0.030068904 -0.038491607 -0.049813844 0.0018479137 0.040462762 -0.013404276 -0.01279896
0.0078542605 -0.012690334 -0.005291394 0.06163631 -0.008507001 0.044331674 -0.005292775 -0.046609484
0.01893131 -0.017777216 -0.023421057 0.060385495 -0.0047672037 0.036513764 -0.0716749 0.020162538
0.06730005 0.0054429816 0.038995966 -0.024798406 0.00157598 0.01754488 0.041892342 -0.0024972912
0.09550254 0.0030593036 -0.0077885864 0.015670372 0.07068396 0.0054801395 0.0035230904 -0.040168058
-0.017229782 -0.058701985 -0.00597758 -0.058911953 -0.0638127 -0.029035602 0.00213126 -0.027244449
0.0453548 0.038317546 0.040728137 0.010960168 0.011480625 -0.016539054 -0.033823073 0.005561874
-0.0038681843 0.015044918 0.005980277 0.035558376 0.05580979 -0.023267915 -0.02650423 -0.014558374
0.051236454 0.052035723 0.008572616 0.02661574 0.011932845 -0.049818426 -0.036731537 0.082544826
-0.040263142 -0.013886376 0.053826664 -0.022171307 -0.05814062 -0.013692316 -0.009024261 0.01887756
0.02530036 -0.008161506 0.023144418 -0.033461895 -0.036424972 0.032110143 -0.034004606 -0.023033345
0.047874376 -0.046782732 -0.010858936 -0.051354878 0.017963665 -0.02812433 0.0017367672 -0.040399533
-0.047058422 0.006437125 -0.057892013 0.0808735 0.032773446 0.08263761 0.03918115 0.014115785

base_model.model.model.layers.0.self_attn.q_proj.lora_B.weight f4 [768, 8]
00000000: a1ed e2bb 190d 153c 545a 233c 2b86 48bc
00000010: 1642 e0b8 c4e6 8dba 05ee 31bd 63cc e1bb
00000020: f601 07bd 8171 933c 1897 e5bc b93e d2bc
00000030: d884 e2bb 6a10 1bbd 6fba 803d 2b6d 0f3c
00000040: 64c6 033c 4ee7 25bd e866 cd3c 3ab7 633c
00000050: 654d 993c f32d 88bc 9784 5fbd f1d6 1cbd
00000060: 10e3 ce3c d6bd 9d3d 1f6a 903c 1c5d dbbc
00000070: 1ab5 2f3d a4f0 b43c d908 133b d485 683d
00000080: 5b3c 1e3d 49f2 bf3d a713 213c b1f0 9abc
00000090: b5e7 223d b47b e93c d43f 8f3c 8dbf 3e3d
000000a0: 0043 3e3b 579f 20bd b181 de3c 836c 063d
000000b0: 28dd 95bb bc4e dcbc 80e7 88bc e164 233d
000000c0: dee1 d33c 0498 f33c 8d7b 9d3c f2c3 3f3b
000000d0: 1474 013d 172c 8d3c 8c56 c13b 9dc8 183d
000000e0: b097 633b 9ee9 573b 88be 2a3d 1bef 0f3d
000000f0: f20d 403d f591 9cbc 1b57 55bd f6fc 58bd
00000100: 63f2 603c d2b4 c9bb 2b2f 7bbc 8233 233b
00000110: 6bec a43b d61a 443d 2ef6 093d 706a 73bc
00000120: ea0e c93b 2a4e 043c 7ecf 423d 8f84 043d
00000130: 189b ed3c 7687 42bd 4e13 10bd 1667 f2bc
00000140: 5c94 97bc 8440 9c3c 4ba7 26bc a414 3fbb
00000150: c625 233c f728 513d c307 2f3d fa86 2ebc
00000160: 146b 863b 0506 8d3d 643d 4e3c 85cb 02bd
00000170: a44f acbc 2dda d0bc 8897 0a3d b5eb 573d
00000180: 5e37 d9bc 4bae b939 81f5 aabc 23be 8abc
00000190: ea5e 26bd 670d 98bc 38fb 0dbc 7ebf 203d
000001a0: 749f 393d cff1 023c c664 c73c c195 0c3c
000001b0: 025c 9b3c 1eb8 e8bb 90d3 d53b 0886 0e3d
000001c0: 9d27 023c 32c1 933d caf5 b5ba 1d76 e9bc
000001d0: bbfb 263d 36a6 c43a d102 153b 0b89 2d3d
000001e0: eb22 d03b 2814 aabd ae6f 0abd 4b95 32bc
000001f0: 9b8e 38bd 14b4 25bc 470a 143d bad3 4b3d
00000200: f2b8 f2bb 819a 3d3c 960f c03c 7b66 0abd
00000210: ea28 623d 4bc4 cabc 1781 a3bc 8697 a83c
00000220: 8b54 32bc 5bc4 57bd f73a 85bc dc62 22bc
00000230: 9444 9e3c 85f6 833d 83e6 d13c 8fc2 b23b
00000240: e520 e2bc 6ff1 2bbc dab3 ae3b 43d3 a93c
00000250: b13f 2bbc 20b3 49bd 968a cebc 1ee1 55bd
00000260: 16d8 a43c 5b6a f9bc 3a56 373d 085f 013d
00000270: fcef 1a3c db2f 05bd aa6f 54bd 3c70 69bd
00000280: fe62 7e3c 4283 c3bc e575 8e3c f7fb 3b3c
00000290: 2b15 053d b1c4 943c c8b1 c13b 055b 253b
000002a0: d213 aebb a635 8fbd 6052 37bd 3354 033b
000002b0: d0a3 93bc c5e7 893d cfd4 0d3d 720e 1b3c
000002c0: de59 9d3c fdcf 2a3c 5f5b 123d 1729 ae3c
000002d0: 9768 173d b825 a13b fce0 2fbc 6f50 afbc
000002e0: 79c6 103c a860 4abc 84d6 c7bc 81cd 1bbc
000002f0: bb58 97bc 41a2 913c eb3c 473c 8fc5 7b3d
00000300: fddf 20bd a33e 91bd e1a1 77bc e640 7abc
00000310: 9c92 3abd a390 903c 5e5c fcba b464 2ebd
00000320: c4c0 0f3d b59b b0bd 3133 5e3c 56f9 5c3d
00000330: 83e1 0abd af63 5fbc 19ed 91bc 3231 81bc
00000340: 36d6 9a3c 9db9 30bd 5cae 903d 31fa 2f3d
00000350: da06 043d eb1b 94bd b917 a0bd ff86 74bd
00000360: b16c 003d 70c1 033d 7662 143c 0838 64bc
00000370: 10a9 203d 4f9a d23c c19a 473c b84c ed3c
00000380: b885 fb3c b0a6 57bd b45d 0b3d fd86 ee3c
00000390: 8516 1d3d a8ce 9fbc 0613 fdbc 2e85 78bd
000003a0: a4dd 593d 6d88 013d b9b6 653d 7bbb 6d3c
000003b0: 8139 873d 86e1 2fbc d7c0 16bd bf7f 013d
000003c0: 296f ba3c 2715 87bb 8d46 8d3c f49b 5d3c
000003d0: a64a 343c b213 5b3b 6541 b7bc 278c 5d3c
000003e0: e08f 2a3d 24ff 06bd 45ac 583d f994 433d
000003f0: ffe1 1b3c 8603 13bd 1de8 80bd 48ba b0bb
-0.0069253 0.009097361 0.009970266 -0.012239019 -0.00010693462 -0.001082622 -0.043439884 -0.00689082
-0.032960854 0.017998459 -0.028026149 -0.025664674 -0.006912809 -0.03785745 0.062855594 0.008754055
0.0080429055 -0.040503792 0.025073484 0.013898665 0.018713662 -0.016623473 -0.054569807 -0.03829092
0.025254756 0.07702224 0.017628727 -0.026777796 0.04289732 0.022087403 0.0022435694 0.056768253
0.03863178 0.09372384 0.009831346 -0.018913599 0.039771754 0.028501369 0.01748649 0.046569396
0.0029031634 -0.03921446 0.027161451 0.03281833 -0.004573483 -0.026893012 -0.01671195 0.039891127
0.025864538 0.029735573 0.019223953 0.002926108 0.03160484 0.017232938 0.00590021 0.037300695
0.0034727864 0.0032945643 0.04168561 0.035140138 0.0468883 -0.019112566 -0.052085023 -0.052975617
0.0137296645 -0.0061555887 -0.01533107 0.0024902527 0.005033066 0.047877155 0.03368204 -0.01485692
0.006135811 0.008075276 0.04756116 0.03235298 0.029004619 -0.047492467 -0.03517466 -0.02959017
-0.01850336 0.019073732 -0.010171722 -0.002915659 0.009957736 0.051064458 0.04273201 -0.010652298
0.00410212 0.06885914 0.012587879 -0.031932373 -0.02103407 -0.02549466 0.033835918 0.052715022
-0.026515659 0.00035415808 -0.020869019 -0.016936367 -0.04061786 -0.018561078 -0.008665852 0.03924512
0.045318082 0.007992222 0.024340045 0.008580626 0.018964771 -0.0071020266 0.0065254644 0.03479579
0.007944015 0.072145835 -0.0013882455 -0.028498704 0.040767413 0.0015003148 0.0022737274 0.042367022
0.006351819 -0.08304626 -0.033797912 -0.010899852 -0.045057874 -0.010113735 0.036142614 0.049762465
-0.007407301 0.011572481 0.023444932 -0.03378914 0.0552148 -0.024751803 -0.019959016 0.020580065
-0.010884414 -0.052677494 -0.016263468 -0.009911265 0.01931981 0.06443504 0.025622612 0.005455322
-0.027603576 -0.010494574 0.0053314986 0.02073062 -0.010452197 -0.049243093 -0.025212567 -0.05221664
0.020122569 -0.030446222 0.044759966 0.03158477 0.009456631 -0.03251634 -0.051864304 -0.0569918
0.015526531 -0.0238663 0.0173902 0.011473647 0.03249089 0.018160196 0.0059110858 0.0025231254
-0.0053124214 -0.069926545 -0.044756293 0.00200392 -0.018022448 0.0673366 0.03462678 0.009463893
0.019207891 0.010425565 0.03573167 0.021259828 0.03696498 0.0049178265 -0.010734793 -0.021400658
0.008836382 -0.012352146 -0.024394281 -0.009509445 -0.018474927 0.017777564 0.01216052 0.061467703
-0.039276112 -0.07092025 -0.0151142785 -0.015274262 -0.045549974 0.017647093 -0.0019253602 -0.042576507
0.035095945 -0.08623449 0.01356201 0.053948723 -0.03390647 -0.013634606 -0.017813252 -0.015770528
0.018900972 -0.043145765 0.070645064 0.04296321 0.032233097 -0.072318874 -0.07817025 -0.059699055
0.031353656 0.0321669 0.009056678 -0.0139293745 0.03922373 0.025708346 0.012182892 0.028967246
0.03070341 -0.0526492 0.03402491 0.029117102 0.038351554 -0.019507721 -0.03089286 -0.060673885
0.05318989 0.031624246 0.05608246 0.014510031 0.06602765 -0.010734921 -0.036805 0.03161597
0.022758083 -0.0041223946 0.017245555 0.013525952 0.011004126 0.0033428487 -0.02237005 0.013522184
0.041641116 -0.032958165 0.052898664 0.047749493 0.009514331 -0.035892032 -0.06294272 -0.0053933

base_model.model.model.layers.0.self_attn.v_proj.lora_A.weight f4 [8, 768]
00000000: 78c8 423b 33a1 b83c ef55 6a3c 6e6f bebc
00000010: b67e 2cbd a2ab 4cbc 9143 813c efc1 013c
00000020: ceba 253c 1577 a3bc 2e6f 653c 30a9 e93c
00000030: 74e7 d83b 7d83 73bc 88cd 403d 4a32 443d
00000040: 9a3b 5dbc f1e5 c13b 7b8b 8039 bc04 68bc
00000050: a0d3 a33a 04a9 e8bc 71ab 0d3d 4be1 433d
00000060: 7516 343d de6b 8b3b a16c 003d 5c1e 81bc
00000070: dfcf 7b3c dbd2 7c3b 6480 b8ba 45cc dc3b
00000080: 5446 43ba 9c58 8dbc c491 98bb 470b 763d
00000090: cc25 c03c 6a9f 693c 05ac 883b 5b4d 3e3c
000000a0: f8bc 1bbd b89f 2d3c befe 293d d205 5cba
000000b0: 828f 303c b0f4 6fbb a2d5 b33c 5db5 32bc
000000c0: 930f 26bd 27b7 b43b 08f1 84bd 6331 d63c
000000d0: d985 c73c cea2 2a3b 0470 dfba c21f c2bc
000000e0: 4394 18bd d268 f93b fc7e a73c 450d 413d
000000f0: 1d29 d23c f3ae 90bd 3acb ec3c 4718 c53c
00000100: c088 1d3d bc75 463d f282 b13c 8901 1fbd
00000110: ee98 143c 190e e53c 75cc 6f3c 7544 1f3d
00000120: f759 7bbc 6e7d a1bc 5b32 203c 7ef7 0cbc
00000130: 2f76 bbbc 7715 d23b 9461 f83b 25b1 01bd
00000140: df69 903c b2e6 f43c c8c3 213b 2fbd babc
00000150: 5efe d9bc a61c 7d3d f766 7a3b f8b2 a1bb
00000160: bf52 95bc d086 2abd 3056 963b 495e abba
00000170: 3e2a 573d 4524 f4bc 083b 91bc eb8c cebc
00000180: 7b4b a83c 52ac 9b3b fd92 6cba 6418 cebc
00000190: 3205 32bc 78e0 4dbc 4aa7 70bc 6b5f dbbc
000001a0: a914 90bc bd19 76bc cf74 a7bc a240 633c
000001b0: 267f 0bba 2082 c73c 4967 f8bb 2ff6 593d
000001c0: 4e76 f63b f6c1 043c 10ce ea3c 6895 db3c
000001d0: a853 ac3c d5e7 9abc ab66 e4bb 5fe8 0abd
000001e0: 9400 07bd c1c9 95bc 94dc c7ba 0e86 1a3c
000001f0: f313 83bc a9c5 263d 7ba8 a9bc 7da7 d9bc
00000200: 049a 4bbb 2107 a9ba 19ff 9cbb 53ea aebc
00000210: fe57 943c c8d4 ba3c 0d0f a43b cd5b 3cbc
00000220: 3a2c 363d 4f9d 3b3c 8837 10bb 05c0 a6bc
00000230: 5ec4 003d 774c adbc 16ef 64bd b046 953c
00000240: 0d3d a8bc 1f4b 5cbd b4ee afbc 0a94 9bbc
00000250: 3dcd 96bc 2139 673c d0f5 823c bd1f 5b3c
00000260: 9c07 2abc 51d4 903b 6204 103d 49bc 023c
00000270: 33f0 643b 7b0b 49bd a820 8fba 4307 95bc
00000280: eb10 58bd 32eb f23c 604f 913d 52f9 7e3c
00000290: a881 b83c 2a45 db3c 2d90 d83a fe80 b23a
000002a0: 5c6f 7cbb ab81 debb e4c4 243d 96c5 7d3d
000002b0: 9e30 ad3b 8344 f53c b8d0 3c3c 89aa 2ebd
000002c0: f12c a13c 8742 b93c 8eb9 ee3b 24c9 fb3c
000002d0: 9d9f 873c c28e 2c3d cb9d d53b 5e48 993c
000002e0: 7187 21bd aafa 2dbb bc87 07bd e787 5cbc
000002f0: 820c 16bd 8747 6d3b 7d31 813d c9fb 1dbb
00000300: 957e dabc 85c0 ffbc 8810 44bc ee9b a23c
00000310: 60fe 7bbc b433 22bc 4909 31bc dc57 333d
00000320: 6487 573d 0bfa a2bb 83a5 cebb 3896 133c
00000330: 072f 6e3c 68ba 103b 7154 23bc f6fb 2e3c
00000340: 7703 103c 1ad5 613c a5df 79bb d2b6 0e3d
00000350: 2133 0ebc c8d5 86bc 0019 0f3d d1ed 4f3d
00000360: 86eb c23b f342 cf3c 329e efbb 18bf c4bb
00000370: a642 97bc 125a 6c3c 8b40 013d ed00 e73c
00000380: 9a8a 0fbc 756f a03b 8433 273c 6d40 92bc
00000390: e291 353c f7f1 543c 475f d1bc 4ab3 b33c
000003a0: 33b1 c6bc 750e c33c a253 50bd 1e15 9cbb
000003b0: 7a8a a2bc 6588 35bb bc1a 06bc bac2 a6b9
000003c0: 4861 93bb 21bf b43c 9da4 00bb e526 913c
000003d0: 2260 cdbc 65a4 603c d58e 093c f4ae bcbb
000003e0: 3372 323c 3433 663c 98b5 88bc 93aa 373d
000003f0: b4af b53c c151 6f3c 5e6c 9dbc 07fd 8f3b
0.002972154 0.022537803 0.014302715 -0.023246493 -0.04211303 -0.012492092 0.015779288 0.0079197725
0.0101153385 -0.019954244 0.014003558 0.028523058 0.0066193882 -0.014862892 0.04707101 0.047899522
-0.01350298 0.0059173037 0.00024517984 -0.014161285 0.0012498982 -0.028400905 0.034587327 0.047822278
0.04396673 0.004254802 0.031353597 -0.015761547 0.015369385 0.0038577828 -0.0014076349 0.006738218
-0.00074491394 -0.017254166 -0.0046560485 0.06006935 0.023455523 0.014259199 0.004170897 0.011615123
-0.03802201 0.010597162 0.041502707 -0.0008393201 0.010776402 -0.003661435 0.021952454 -0.010907498
-0.040542196 0.0055149975 -0.064912856 0.026146596 0.024355816 0.002603698 -0.0017046933 -0.023696784
-0.03725077 0.0076113725 0.020446293 0.047131795 0.02565437 -0.07064619 0.0289055 0.024059428
0.038460493 0.048452124 0.021668885 -0.038819823 0.009069664 0.027960824 0.014636149 0.038883645
-0.0153412735 -0.01971313 0.009777631 -0.008603929 -0.022883503 0.00641125 0.0075799916 -0.03166308
0.017628608 0.02989516 0.0024683345 -0.022795288 -0.02661055 0.0617949 0.0038208344 -0.004934665
-0.018227933 -0.041632473 0.004587911 -0.0013074364 0.05253052 -0.02980245 -0.017728344 -0.02521368
0.020543804 0.004750767 -0.00090245885 -0.025158115 -0.0108654965 -0.012565725 -0.014688322 -0.026778897
-0.017587977 -0.015020785 -0.02044144 0.01387039 -0.0005321376 0.02435404 -0.007580672 0.053213295
0.0075214272 0.0081028845 0.028662711 0.02680464 0.021035984 -0.018909374 -0.006970247 -0.033913013
-0.032959536 -0.01828468 -0.0015248233 0.009431375 -0.016000723 0.040715847 -0.02071022 -0.026569122
-0.0031067142 -0.0012895801 -0.004791152 -0.021351969 0.018108364 0.02280654 0.005006677 -0.011496496
0.04447577 0.0114510795 -0.0022005755 -0.020355234 0.03143727 -0.021154625 -0.055892073 0.018222183
-0.020536924 -0.05378258 -0.021476127 -0.018991489 -0.018408412 0.014112742 0.015986353 0.013374266
-0.010377791 0.0044198413 0.03516043 0.007979461 0.003493321 -0.049083214 -0.0010919767 -0.01819194
-0.05275051 0.029653165 0.07095218 0.015562372 0.022522762 0.026766378 0.001652246 0.0013618765
-0.0038518524 -0.00679036 0.040226832 0.06195601 0.0052853366 0.029939895 0.011524372 -0.042643104
0.01967475 0.02261473 0.0072853034 0.03073556 0.016555602 0.042128332 0.0065190545 0.018711265
-0.039435808 -0.0026547113 -0.03308843 -0.013460136 -0.036633022 0.0036205964 0.06308267 -0.0024106374
-0.026671687 -0.03121973 -0.011966832 0.019849744 -0.015380472 -0.009900022 -0.010805436 0.04378496
0.052619353 -0.004973655 -0.0063063516 0.009007983 0.014537579 0.0022083763 -0.009968863 0.010680189
0.008789889 0.0137837175 -0.0038127687 0.03484232 -0.008679182 -0.01645936 0.03493595 0.05076391
0.0059484867 0.025300479 -0.0073125595 -0.0060042255 -0.018464398 0.014425771 0.031555694 0.028198684
-0.0087610725 0.004896099 0.010205153 -0.017852986 0.011082144 0.012997142 -0.025558127 0.021936078
-0.024254417 0.023810605 -0.05086101 -0.0047632596 -0.019841421 -0.0027699706 -0.008185085 -0.0003180707
-0.004497681 0.022063794 -0.0019629367 0.017718742 -0.025070254 0.01371107 0.00839587 -0.0057581607
0.010891485 0.014050294 -0.016688153 0.044840407 0.022178508 0.014606894 -0.019216713 0.004394177

base_model.model.model.layers.0.self_attn.v_proj.lora_B.weight f4 [256, 8]
00000000: 2653 6dbc b620 3839 18e0 07bc a158 47bb
00000010: 7d7d 21bc 23b5 593d 8715 4dbc 8e16 3fbb
00000020: e4e2 073c 78dc 6dbc c36d 383c 0f47 64bb
00000030: a773 f9b9 23d3 cc3c 0e61 83bc 7bdb 383b
00000040: 7f13 43bc 5400 063c e392 49bb 79fb e83b
00000050: a76c a0bc e46d f7ba 4459 febb eb25 dc3b
00000060: 6011 a3bc 768e adb8 3d60 86bc 0bc0 113a
00000070: 67dc 2a3c 906a d93b 6ce6 083b 699e c7bb
00000080: e9a2 55bb aba8 bd3c b670 ad3c d15a a4bb
00000090: 38bf df3b f9b0 d1ba 6728 973b 31f9 343c
000000a0: 64d2 8bbc dc13 3a3c d397 bb3b 5fdd 96ba
000000b0: 7ab1 0dbc 05e6 d13b 3a52 993b f753 fc3a
000000c0: f6da e7bb 39d0 893c 004a 313c dd7e c53a
000000d0: f4f3 9439 b924 d2bb e3b1 493b d70a e93b
000000e0: 43c3 963b b2e3 89bc 0021 dd3b e60c 803c
000000f0: 5aa4 12bc a980 753b d603 1dbb 1f69 b13b
00000100: 1fcc 893b 8956 cb3c 4a3c 9b3c 3889 1dba
00000110: cd70 213c 994b 35bc d5e7 a03c e225 72bb
00000120: 9d76 e4bb dafe ad3c 93cb 0abc 5678 05bd
00000130: 6f0a 79bc 8629 e83c 0395 4d3b 5918 b8bc
00000140: a265 d83c 51da 06bc 4586 703c f576 423a
00000150: 44e3 5ebc 7fd4 e23c 398a 5a3b 9bff 18bc
00000160: 229e c7ba 8afd 9d3c 45eb 26ba 2627 bbbc
00000170: 743d d0bb f0b6 053c 3e79 053c 5fa3 68bc
00000180: abe9 01bc dc9a e03b 6e9e b538 57d8 00bc
00000190: 84ce 443c 7381 643b a4c2 6b3c f4d1 3f3c
000001a0: b8ba 56bb ad3b de3b dfa7 c33b 91b9 923b
000001b0: 93c5 67bc 850c dbbb 6e07 8cbc 41b8 1bbd
000001c0: 652a d93b c16b 1c3c dbfc 073c 4ba0 f8bc
000001d0: aa97 663b beb5 c2bc 7eaf 4cbb fcce 0abb
000001e0: 3934 f63c 95e8 d43b f801 1a3c 1149 ba3b
000001f0: 68d8 8e3a f72d 87bc ed2f 123c 976b 8abb
00000200: 94c4 273c 4fb6 793b 848c 4e3c fa0b 99bb
00000210: 1549 c03b 7e2a 90ba 2430 c1ba 98df 143c
00000220: b3d8 ac3c 96b7 e83c d667 743c 4421 98bb
00000230: f592 62bc 5cd3 4abc 33f7 453c 25e1 6f3b
00000240: a953 99bc 08ab e93c 3e54 213c e077 4dbc
00000250: 2a9b 39bc 261a 25bc 9bc8 9a3b 6f44 44bc
00000260: 9332 d3bb fad8 a43a e208 d4bb 9bc3 e63b
00000270: 36b7 c83b 0b2c 06bd 4017 fbbb f46d 2e3c
00000280: 5e18 5d3c 29b8 0cbd bdd8 69bc d71d a23c
00000290: 54b7 0a3c b1bd 143c d69d be3a d05b c53b
000002a0: 9719 4bbc 202e 28bb b724 323c ee8e 343a
000002b0: b9e2 033c 555d 81ba 19d5 0e3b aea2 80bc
000002c0: 16fc 17ba 69b8 643c c846 03bc 84fa 4e3b
000002d0: 2b80 1bbc d963 443c 6af5 f0b9 99b5 313c
000002e0: 11a5 abbc 8eb4 f93b 1f71 84ba 72eb a83b
000002f0: cbad 603b c19b f2bc 8219 1b3c cb89 5f3c
00000300: d60d 13bc e573 953b 964c 623b 5497 b33b
00000310: a3a5 aebc f800 3d3b 836f 103c b838 253c
00000320: e508 7abc 8e29 38bc dc29 743c e012 583c
00000330: ba75 cf3b 05b5 05bc 4fee 0a3c 5157 a2b9
00000340: 9172 a63a e3f1 243c 293f 0dbc b3ec ac3b
00000350: e5ac 253b 9964 bcbc 2487 d9b9 b884 6c3c
00000360: 2c9b 8abc 0d2d d03a d757 463a 28c5 b8bb
00000370: c806 7e3a 178a 9ebb c7b1 da3b b069 3b3b
00000380: 08ed 81ba ac25 0bbc 13a9 47bb 2ccd 18bc
00000390: a4c4 d23b 1b04 99ba 3f33 173c 1630 bf3a
000003a0: 028b 94bb 8a98 d83a 69c6 8d3b 7525 5fbc
000003b0: 4a4c 4cbc 200f e2bc cb57 1e3b 5a8c 58bb
000003c0: 9d44 7c3c 7bdf 16bc 1e32 a23b 47e5 813a
000003d0: fb8c cabb 74f4 05bb 388f cdbc 51e2 263c
000003e0: 4d60 d3bb 6796 ce3c 362b fe38 f70c 3739
000003f0: 1ce2 b0bc dbde 993c b866 413b 5fb4 daba
-0.014485156 0.00017559793 -0.008293174 -0.0030417817 -0.009856579 0.05315126 -0.01251734 -0.002915773
0.008293841 -0.014517896 0.011256638 -0.0034832393 -0.0004757915 0.025003022 -0.01603749 0.0028206992
-0.011906504 0.008178789 -0.0030757717 0.007110056 -0.01958306 -0.0018877354 -0.007762106 0.0067183874
-0.019905746 -8.275818e-05 -0.016403312 0.00055599277 0.010428525 0.0066350177 0.0020889295 -0.006091882
-0.0032598323 0.023151716 0.021171909 -0.005015709 0.006828215 -0.0015998177 0.0046129706 0.01104574
-0.017068096 0.011357274 0.005724886 -0.0011510066 -0.008648271 0.0064055943 0.0046789916 0.0019251098
-0.0070756627 0.016822921 0.010820866 0.0015067715 0.0002841052 -0.006413069 0.0030776195 0.007111888
0.0046009137 -0.016832206 0.0067483187 0.01563115 -0.008950317 0.003746072 -0.0023958585 0.0054141427
0.0042052413 0.024821537 0.018949647 -0.0006009522 0.009853554 -0.011065387 0.019641796 -0.003694885
-0.0069721476 0.021239687 -0.008471387 -0.032585464 -0.0152002415 0.028340112 0.0031369335 -0.022472547
0.02641565 -0.008230762 0.01468045 0.00074182387 -0.013603989 0.027689217 0.0033346547 -0.009338285
-0.0015229622 0.019285936 -0.00063674554 -0.022845816 -0.006354982 0.0081612915 0.008146582 -0.014199107
-0.007929246 0.006854398 8.6602624e-05 -0.007864079 0.012012128 0.0034867197 0.014389668 0.011707772
-0.0032765102 0.0067820163 0.0059709395 0.0044776876 -0.014146226 -0.006684842 -0.017093387 -0.038017515
0.0066273683 0.009547175 0.008300032 -0.030349871 0.0035185614 -0.023768302 -0.0031232531 -0.0021180501
0.030054199 0.0064974525 0.009399883 0.0056849797 0.0010898234 -0.01650141 0.008922559 -0.0042242515
0.010239739 0.003810305 0.012606744 -0.004670617 0.005868087 -0.0010998992 -0.0014739078 0.009086512
0.021099424 0.028407853 0.014917335 -0.0046426374 -0.013828983 -0.012379494 0.012082863 0.0036602702
-0.01871665 0.028523937 0.009846745 -0.012540787 -0.011328498 -0.010077035 0.004723621 -0.011979206
-0.006445238 0.0012576871 -0.0064707855 0.007042361 0.006125356 -0.032756846 -0.0076626837 0.010646332
0.013494579 -0.034355316 -0.014272866 0.01978962 0.00846656 0.009078429 0.0014542888 0.006022908
-0.012396238 -0.0025662258 0.010873011 0.0006887753 0.00804966 -0.0009869734 0.0021794497 -0.015702572
-0.00057977566 0.013959982 -0.008012481 0.0031582424 -0.009491007 0.011986696 -0.00045959215 0.010846519
-0.020952733 0.0076204007 -0.0010104513 0.0051550204 0.0034283276 -0.029615285 0.009466531 0.013643692
-0.008975467 0.004560935 0.0034530512 0.005480686 -0.021319216 0.0028839689 0.008815649 0.010084324
-0.01526091 -0.011240376 0.014902558 0.013188094 0.006331173 -0.008160834 0.008479669 -0.00030964104
0.0012698938 0.010067436 -0.008621016 0.00527724 0.0025280055 -0.022997187 -0.00041490153 0.0144359395
-0.016919695 0.0015882567 0.000756619 -0.005638737 0.00096903415 -0.004838239 0.0066740247 0.002859693
-0.000991256 -0.008492868 -0.0030465766 -0.009326261 0.006432133 -0.0011674197 0.009228527 0.0014586474
-0.0045331726 0.0016524952 0.004326631 -0.01361977 -0.012469361 -0.027595103 0.0024161215 -0.003304264
0.015397218 -0.009208555 0.004949822 0.0009910249 -0.006181357 -0.0020439895 -0.025092706 0.010185794
-0.006450689 0.025218202 0.000121197125 0.0001745707 -0.021592192 0.018783024 0.0029510688 -0.0016685835

base_model.model.model.layers.1.self_attn.q_proj.lora_A.weight f4 [8, 768]
00000000: 4c51 a9bd e80c 703b a108 c3bd ffb0 0c3c
00000010: 359b d8bc 9762 9a3c c368 133d ee3d 00bd
00000020: 63ca 2d3d 5534 943c e856 863d eaf4 753d
00000030: 4ada 2cbd 043d c7bd b7fc 9bbc da8f d2bc
00000040: ea63 023d 7343 0dbd ba78 af3d 441d 893c
00000050: e100 d03b a614 0c3c 8f9a 9d3d f340 56bc
00000060: dfb7 d9bc 919f 89bc 2be6 b73c f56b 3bbd
00000070: 0ba1 d73c 351e 4abc 77de a0bd bc83 57bd
00000080: 4a38 0e3e 6429 4bbc b3bd 65bc c9b6 78bc
00000090: 2629 08bc ffd2 663d c29b 823d c61e f63a
000000a0: 69ee 353b 2663 90bd 5ae5 073d 8a25 b5ba
000000b0: c90e 9cbc 6960 b0bd 2b8d 9f3c 6025 ad3d
000000c0: 12b5 cbbc 6076 6e3c d266 87bd ca97 413c
000000d0: 5cfd 7dbd df36 3d3c 7b3f 053d f339 443d
000000e0: 0a40 5dbd e59d 86ba c4b5 fdbc d560 873d
000000f0: fdb5 3c3d 56b1 0d3d ed47 a93c 93e1 0abd
00000100: 3f6a bcbb 333a 25bd 6008 09bd c8a1 d43c
00000110: 9616 ee3c 7ae1 133b dcd7 18bc 7b56 d63c
00000120: 6a26 93bc 2bc0 403c 83a1 abbd 9095 d53c
00000130: 8460 ea3b 4fdc 09bc 66e4 bf3b c637 803d
00000140: 4927 cc3c 4691 afbd c755 54bd df35 6d3d
00000150: 2edc 24bd a582 3cbb 3e2a cd3c 09cd 303d
00000160: 178d 02bc e583 d43c c519 623d 64e2 e73c
00000170: 2a13 8a3c dc92 1c3b 7a4a e33c b2e3 f1bc
00000180: cb90 eb3a b76e c8ba df20 dfbc 874e 48bd
00000190: 0229 9cbd e0d7 eb3d c274 883d 64c2 49bd
000001a0: 15fe 083d dd10 9abd 2f70 903d 73da d23b
000001b0: 7983 90bd 70f6 3ebb 63b7 fabc c04b 1dbd
000001c0: 9a8a 95bd 8c78 7dbd 7967 0f3d 8548 54bd
000001d0: 5e06 253d 13d3 7c3c 7668 49bc fffa 1a3c
000001e0: c285 2d3c 9993 fabc cdde ba3c a4e0 bb3a
000001f0: 2560 f23b 9674 85bc 11cf 18bd c72a 923c
00000200: 05b0 35bd 553a 88bd e39a 8cbc a882 36bd
00000210: 271d 1f3d cead 5bbd bf18 01be 36dd a6bc
00000220: 1a2a 12bd 279c c0bc 26c5 143c 3326 98bd
00000230: cd95 523d 41bf a3bc 6919 953d 2231 38bd
00000240: c07f f33c 13db 8b3d 8208 afbc eb16 a13c
00000250: 83c2 213d d301 813d 9fbd 6c3c 8696 32bd
00000260: d5cf 943d deca bb3d 914b a13c 0d85 883c
00000270: 6e2e a63c e0fc d6bc fd3e 0fbc 1407 d8bc
00000280: 74c5 023d 98d4 cebc aabc 9f3c 0cf5 843d
00000290: 848a f1bc 2848 8b3d 80a8 1c3d e11b bfbc
000002a0: d985 64bd 15cb 333d 7b8f a9bc af0d 1abd
000002b0: 082e 933b c239 073d 0552 cbba 47de 8ebc
000002c0: 22a1 3f3c 2a5e 2f3c 428a 1e3c 16ab bdbc
000002d0: 89da 413d dc52 c7bb 37e0 23bd 19ad c8bc
000002e0: 2737 3abd 721f dbbb 1a3e 343b 71ad e4bb
000002f0: 779f f738 ce8e 2dbc 0961 ca3c 7c0b 923d
00000300: 9e6e 953d 0f76 a8bd 047c e53c 21d3 9bba
00000310: c09c 50bc e464 c7bc eaad e53c c210 14bc
00000320: c746 cf3c 6638 b93d b5e5 383d f86d 253c
00000330: 1d3d 0c3c ecb5 5ebd 0284 bab9 2d79 a8ba
00000340: 48cf 8dbb bc91 ec3c 6307 823c c27d e4bd
00000350: 1f40 50bd 01d9 fa3c 6b1c 883b 33a2 703c
00000360: be63 8c3d 32b8 9cbd 2473 7fbd 622b 11bd
00000370: 3c35 efbc 3c92 003c fd31 033d 52cc b73c
00000380: 0a58 123d b26f abbd d9cf e93c cb11 ad3d
00000390: 0ab1 00bd 7538 d43c 903a f03b 0920 43bc
000003a0: 2bf4 61bd 99e8 ca3c 4f93 5a3c 83bc 0bbc
000003b0: b88b 573d c99e 5a3d ae39 653d 5fa3 66bc
000003c0: 4347 dd3c 7742 0fbd 7ae4 383d d9f9 7c3c
000003d0: dcaa 79bd 175f 813c 7873 8a3d ec34 1f3d
000003e0: e523 72bd b47c 08bd 1283 273d b910 1e3d
000003f0: f5e5 ecbb 491b cfbc 8fec 643b abe3 64bd
-0.08267459 0.0036628786 -0.0952313 0.008587121 -0.026441196 0.01884584 0.03598858 -0.03130906
0.04242934 0.01809136 0.06559545 0.06004802 -0.042200364 -0.09728435 -0.019041402 -0.02570336
0.031833567 -0.034488153 0.08567949 0.016737588 0.006347761 0.008549845 0.07695495 -0.013077009
-0.026576934 -0.01679972 0.02244862 -0.045757253 0.026321908 -0.0123363035 -0.07854932 -0.052615866
0.1388866 -0.012400005 -0.014022279 -0.015180298 -0.008310592 0.056353565 0.06377365 0.0018777482
0.0027760512 -0.07050161 0.03317771 -0.0013820392 -0.019050019 -0.08612139 0.019476494 0.08454394
-0.024866614 0.01455459 -0.06611408 0.0118159745 -0.0620092 0.011548727 0.032531243 0.047906827
-0.05401615 -0.0010270445 -0.030970462 0.06610266 0.046071995 0.03459295 0.02066418 -0.03390653
-0.00574997 -0.040338706 -0.033455253 0.02595605 0.029063504 0.0022564814 -0.009328809 0.026164284
-0.017962653 0.011764566 -0.08380415 0.026072294 0.007152619 -0.008414342 0.0058560846 0.06260638
0.024921076 -0.085726306 -0.051839616 0.057912704 -0.040249042 -0.0028764394 0.025044557 0.043164287
-0.007968209 0.025941798 0.055200357 0.028306194 0.016854841 0.0023891246 0.027745474 -0.029527519
0.0017972229 -0.0015291785 -0.027237354 -0.048903015 -0.07625009 0.11515784 0.06662895 -0.04925765
0.033445437 -0.07522748 0.07052647 0.0064347326 -0.070563264 -0.0029138587 -0.030605024 -0.03840232
-0.07301827 -0.06188254 0.03501079 -0.051826973 0.040289275 0.015431183 -0.012292972 0.009459256
0.010590972 -0.030587958 0.022811318 0.0014333916 0.007396715 -0.016290944 -0.03730685 0.017842663
-0.04435732 -0.06651751 -0.0171637 -0.044558197 0.03884616 -0.05363255 -0.12607096 -0.020369153
-0.035684682 -0.02351196 0.009080207 -0.07429161 0.051412392 -0.019988658 0.07280237 -0.04496873
0.029724002 0.068288945 -0.021366362 0.019664248 0.03949214 0.06299176 0.014449506 -0.04360058
0.07266203 0.09169553 0.019689353 0.016665006 0.020285811 -0.026243627 -0.008743045 -0.026370563
0.031926587 -0.025247857 0.019499142 0.064920515 -0.029484995 0.06800872 0.03824663 -0.023328723
-0.05579171 0.043894846 -0.0206983 -0.037610706 0.0044915713 0.033014067 -0.0015512115 -0.017439974
0.011696132 0.010703603 0.009676518 -0.02315287 0.047327552 -0.0060828757 -0.04000875 -0.024496602
-0.045462754 -0.006687098 0.0027502836 -0.0069786836 0.000118075804 -0.010593129 0.024704473 0.07131097
0.07296489 -0.08225643 0.028013237 -0.0011888483 -0.012732685 -0.0243401 0.02803703 -0.0090371985
0.025302304 0.0904396 0.04514094 0.010097019 0.008559492 -0.054372713 -0.00035575038 -0.0012853496
-0.0043276884 0.028878085 0.015872663 -0.11156799 -0.0508424 0.030621054 0.0041537783 0.014687109
0.06854962 -0.0765232 -0.062365666 -0.035441764 -0.029200189 0.007847365 0.032030094 0.022436295
0.03572849 -0.083709136 0.028541492 0.08450659 -0.031418838 0.025905827 0.0073312 -0.011909493
-0.055164497 0.024769114 0.013340785 -0.008528831 0.05262348 0.053374086 0.05596321 -0.014077037
0.02701152 -0.034975495 0.045139767 0.015440428 -0.06095396 0.015792413 0.06760305 0.03886883
-0.059116263 -0.03332205 0.040896483 0.038590167 -0.0072295615 -0.025281565 0.003493104 -0.055881184

base_model.model.model.layers.1.self_attn.q_proj.lora_B.weight f4 [768, 8]
00000000: 0893 75bc 066f 1c3d a35e 64bd 6185 2a3d
00000010: 6bc7 80bc f392 16bb 0843 9d3c f772 6cbc
00000020: 220a a0bc 6a28 f1bb 55c0 7f3d f6c1 2dbc
00000030: ab1b 3b3d d39c 283c aa87 c5bb 7c18 cebc
00000040: 3421 19bd e85c 4a3d 97ac 293d 0306 ca3c
00000050: fbd1 683c e9a4 453d b564 8cbc 0d21 debc
00000060: 40d1 a23c ba2d bdbc 18c6 be3c 8116 09bd
00000070: a1ba 5b3d 6bdf c2bb 620d d0bc d60c 3b3d
00000080: 0228 0d3d 473e 45bc 9239 04bd 159c eebc
00000090: 8942 943b d8eb 31bd 7cce a93c e75b f23c
000000a0: f209 0b3c e614 bcbb c631 07bd b204 dc3c
000000b0: c467 5e3d 125c bcbc ed25 503c 33a0 f13b
000000c0: f0ae f9bc 707d 223d 1568 c5bc 0b54 083d
000000d0: 0683 b93c dec2 043c c6c2 fb3b 09b9 1abd
000000e0: bb87 3bbd a6ae 313d bdbf 123d ac81 a03d
000000f0: cf69 3c3d 5fda a2bc e6a5 63bc 119a 6bbd
00000100: c1ce 24bc 3e46 e53c 168b 29bd 47b6 803c
00000110: ea22 d13c 2d1f 73b9 d2bc 16bc ad9b 04bc
00000120: 6eaa 8e3c ac23 30bc a59e 9dbb 5769 9ebc
00000130: a5a6 7cbd 94b4 06bc 9c5a 623d f19a e03b
00000140: 8a63 203d c52c 60bd 2383 52bc 363c c9ba
00000150: 5703 76ba f90a 423b 2045 283d 7944 073d
00000160: df5f 003d f681 06bd fc1d b63c 3c1c d3bc
00000170: af68 b0bb 65a4 603d 9c89 16bd 2e75 213d
00000180: 9a64 d7bb b6b2 7f3c a561 65bc b7ce a33c
00000190: eebb d83c 395e 9fbc 5545 3cba 2a69 91bc
000001a0: 410c ddbb 055a 453d 1d70 4dbd 481c 1a3d
000001b0: 903e ed3c 8be2 0bbd 50d8 c53c d689 cebb
000001c0: 5403 1cbd 6e2f 2dbd 8be0 d9bd 22e1 843b
000001d0: 942e eebb 893c d639 51a3 e63c fdc3 a3bb
000001e0: 096c 0bbd fe43 14bd 4a66 373d fe2e 843c
000001f0: 69be 0fbc 6dcd 4d3d 62fe a1bd 98fa 62bc
00000200: ccb2 373c 3cbc 02bc 767a 613c ec14 2abc
00000210: 62ef bc3b 4549 983d 565e efba 62c7 f33b
00000220: 17c5 a43b e7ba edbc cbfb 42bc 5c4f 46bc
00000230: 3a36 1b3d e4a7 e5bc 2604 ba3c 9c8e fc3c
00000240: d183 2f3d 48db 83bd 16f7 3b3d f55c 87bd
00000250: 52d3 b63b f592 a43b 0d04 17bd 8317 2f3d
00000260: 515d 6f3d 44dc 5bbd 03be ce3c 8f96 ebbc
00000270: 4c1b 4b3c 6fe2 babc f74b d93c ab7b 173d
00000280: 80a4 643c 3b91 fb3a 44fd b33c 36a0 c33c
00000290: 7320 6a3d dbaf 6ebd b17c cf3c d05c b4bb
000002a0: bd11 2d3d ec90 873d 16f0 04bc 1ed1 1a3b
000002b0: e2da 8cbb 422a 413d f232 cabc ac18 69bd
000002c0: eeaf 2abd 466f f3bc 0203 373d b08e 35bb
000002d0: 579f 1c3d e5b0 41bb f4c4 b7bc 47df 04bc
000002e0: e248 08bd 7cb1 e1bc 6094 ccbb 4d77 ae3c
000002f0: f2ea df3c 29a5 7cbb 3cf8 1f3b 6d80 3d3c
00000300: 87f3 a3bc 6940 063d 7e39 f13c 90e2 4b3d
00000310: 1ae9 f03c 7a22 82bc 0d82 303d 34ee 3fbd
00000320: 25f4 c73c ab7e 8c3c ca52 87bc 9f75 74bc
00000330: b9ec 5ebd bcd2 123b 5243 63bd 4534 06bc
00000340: 7e48 bf3d 69da 26bd dd8d 843b 8c6b 8abc
00000350: 5be1 a5bd 5037 1bbc e0fd ed39 1cfb 703d
00000360: cf65 9639 8625 173c 0613 b63c 78bd be3b
00000370: b439 22bc b453 97bb f866 e6bc 67ec 59b8
00000380: d250 febc 70bd 38bc c1fd 40bd 9126 a7bc
00000390: 4475 443d 9702 023c 3c3e 143d 37aa f0b9
000003a0: 22db 0abd b14a 7bbb 770b 9abc 645a 7d3c
000003b0: 30a3 863c 14de 44bd 8bf7 cabc 3e51 21bc
000003c0: 21cf bbbc e474 373d 4106 1ebc f4a5 09bd
000003d0: 58f1 b83c 3e9c ff3b 7707 313c 6fcc 41bc
000003e0: fc4a 8c3b 54b9 c03c 6a73 a7bb 713f a53c
000003f0: 5931 063a 5cdc c53b cc7b 58bc cd78 29bd
-0.014988668 0.038191818 -0.055754315 0.041631106 -0.01572009 -0.0022975772 0.019197002 -0.014431707
-0.019536082 -0.007359554 0.06243928 -0.010605326 0.045680683 0.010291296 -0.0060281353 -0.02515816
-0.03738518 0.04940501 0.04142436 0.02466107 0.0142102195 0.048252974 -0.017137865 -0.02711537
0.019875169 -0.023093093 0.023287818 -0.033468727 0.05364478 -0.0059470437 -0.025397006 0.04566654
0.034461983 -0.012038774 -0.032281466 -0.02912716 0.004524533 -0.04343781 0.020728342 0.029584838
0.008486258 -0.005739796 -0.033006452 0.026857708 0.054298177 -0.022993121 0.012704355 0.0073738336
-0.030478925 0.039670408 -0.024097482 0.033283275 0.022645485 0.008103101 0.007683131 -0.03777412
-0.04578374 0.04337945 0.035827387 0.07837233 0.045999344 -0.019879518 -0.013894534 -0.057519976
-0.01005906 0.027987596 -0.04139241 0.015711917 0.025529344 -0.000231859 -0.009200292 -0.008093757
0.017415252 -0.010750692 -0.0048101717 -0.01933734 -0.061682362 -0.008221764 0.055262193 0.006854408
0.039157428 -0.054730196 -0.012848648 -0.0015353027 -0.0009384653 0.002960859 0.041081548 0.033024285
0.03134143 -0.032838784 0.022231095 -0.0257703 -0.005383573 0.05484428 -0.03675233 0.039418392
-0.006573272 0.015606573 -0.014000331 0.01999603 0.0264568 -0.019454109 -0.0007181962 -0.017750341
-0.0067458455 0.048181552 -0.050155748 0.037624627 0.028960496 -0.034151595 0.024150997 -0.0063030524
-0.03808911 -0.04228156 -0.10638531 0.0040551582 -0.007268736 0.00040862363 0.028154047 -0.004997729
-0.034038577 -0.036197655 0.044775285 0.016135689 -0.008773425 0.050244737 -0.07909848 -0.0138536915
0.011212062 -0.007979449 0.013762107 -0.010380965 0.0057658413 0.0743585 -0.0018262367 0.00743954
0.0050283778 -0.029019786 -0.011900852 -0.012103882 0.03789351 -0.028034158 0.022707056 0.03082972
0.04285032 -0.06438309 0.045889936 -0.06609527 0.0055793906 0.0050224015 -0.036869098 0.042747032
0.058438603 -0.05367686 0.025237089 -0.028758315 0.012396645 -0.02281305 0.02652548 0.036983173
0.0139552355 0.0019193062 0.021971352 0.023880105 0.057159852 -0.058273178 0.025328012 -0.005504228
0.042253245 0.066194385 -0.008113882 0.0023623179 -0.004298554 0.04715944 -0.024682496 -0.056908295
-0.041671686 -0.029716145 0.044680603 -0.0027703457 0.038237896 -0.00295549 -0.022432782 -0.008109874
-0.03327263 -0.027550451 -0.0062432736 0.021297121 0.02733371 -0.0038550592 0.0024409434 0.011566264
-0.020013584 0.03277627 0.02944636 0.049776614 0.029408026 -0.01588558 0.043092776 -0.046858028
0.02440841 0.017150244 -0.01651897 -0.014920621 -0.054424975 0.002240344 -0.055484124 -0.008191173
0.09339999 -0.040735636 0.0040452317 -0.016896985 -0.08099624 -0.009473637 0.00045393314 0.058833227
0.00028686083 0.009225255 0.022225868 0.0058209263 -0.009901453 -0.0046181325 -0.028125271 -5.1957e-05
-0.031044398 -0.011275634 -0.047117 -0.020404132 0.047963396 0.007935188 0.036192164 -0.00045903187
-0.033900388 -0.003834408 -0.018804295 0.015463445 0.016435236 -0.048063353 -0.02477624 -0.00984603
-0.022925915 0.04478921 -0.009645046 -0.03360553 0.02257602 0.007800608 0.010805002 -0.011828526
0.0042814 0.023525871 -0.005110194 0.020171853 0.0005119048 0.006038232 -0.013213109 -0.04137497

base_model.model.model.layers.1.self_attn.v_proj.lora_A.weight f4 [8, 768]
00000000: 8c8d 36bd 4010 5a3d 7c64 3f3c 1b7b 253c
00000010: d851 f13b 218b a23c 1b4d b83c aa02 c8bc
00000020: 5867 94bc f99a b03c e100 66bc 5174 37bc
00000030: b0d9 643b 1673 01bc 4f51 f03a f6b7 563c
00000040: 3d99 64bd e62c fbbc 987a 0f3c 7781 403d
00000050: 04b5 bf3b f340 b1bb 3950 8abc 3e11 c13b
00000060: 2dd2 8dba ab2e 3c3d 7192 883c 875c 1dbd
00000070: d0a6 00bd 9649 263d 5765 ad3b bffe d73c
00000080: 6c7c f23b 2aab c03b e495 333d be77 fcbc
00000090: 1c47 24bd 2e78 c7bc 2547 f23c 0009 9b3b
000000a0: b8ba acbb 59ac ad3c e60d efbc cbd5 023d
000000b0: efb1 763c d390 073b 8002 a1ba 8111 be3c
000000c0: 8833 1dbd a525 db3b d343 19bd 7c7f ec3c
000000d0: 645e f4bb e570 2ebb 2438 113d 397c 283d
000000e0: 3b76 ed3b b016 fa3b ee7c fdbc ca3a 83bc
000000f0: 3e21 b43c b5d3 a3bc 7778 e3bc c532 0bbc
00000100: c9ab 08bd 1aee 08bd 0226 2d3d 9a3f 12bd
00000110: 628e fa3c a67f 633c 0cb9 e9bb e4b9 0abc
00000120: 66ed c7bc 57ee a2bb d12a 75bb 8340 0a3d
00000130: 19c5 e63c f5e0 2fbb e627 30bc ace3 84bc
00000140: 6f27 3e3d e988 973c 4caa f33c dc90 183d
00000150: 8059 243c dfc2 0ebd dc88 f03c 196f 20bc
00000160: e4d4 25bb b39f 473c 5075 483d 2d51 e2bc
00000170: a806 1d3c 9d6c 413d dde2 423d eb2d 453d
00000180: c1f3 82bc ec9f 493c c5fa a93b 6c84 e4bc
00000190: af94 e13c 9329 bebc 7766 9abc 355c 20bd
000001a0: cc59 e83b d5f5 373c 3968 183d 9b59 84bc
000001b0: a389 1d3c dacf e03c 6052 62bc 65fc fcbc
000001c0: 18ef 3c3d 38e6 12bc 2f68 983c ea18 1ebc
000001d0: f717 2a3b 0b68 e5bc a4d9 b3bb 1f66 4dbc
000001e0: 4e1b 2f3d c069 6f3c cf3c 74bb 8599 163c
000001f0: d065 71bc 208d 18bc 0d8c 0fbd b87d 48bd
00000200: 7b27 483d d08d 3d3d 096c 0a3d 1e88 953b
00000210: 4cba 16b9 b510 5b3c 937e 1b3d add2 1bbd
00000220: 0be4 173d 4dac 13bd 144c 323b f6e9 4ebb
00000230: b255 07bd 5f76 d8bc 4a98 cebc 4826 31bd
00000240: 4878 883c 0d46 143d fcbd de3c 1ba1 0a3d
00000250: ec31 d9bc 4d6c 88bc bc99 87bc e150 55bd
00000260: 4419 503c 228c 953c ec07 743c 158d d5bb
00000270: f83a 1e3d 5e25 65bc 378d afbc c47d 84bd
00000280: ec4c 6d3c 3fb6 47bc e827 a23b 26bf d33c
00000290: ba07 333c f4aa 5bbd 6c3f 093c 6d1c 7e3c
000002a0: 0b32 2dbd ba14 14bd 023c 36ba 8922 3eb9
000002b0: 5631 ba3b 2f4c 3a3b e200 b7bc dd82 55bd
000002c0: 5e97 38bd c1a2 18bc afc2 66bc bd2b 6abc
000002d0: 57ba 59bb c7c4 5a3c 1cde 983c b318 ee3c
000002e0: bee1 743c 4122 debc 87e6 8e3b 92fb 66bc
000002f0: 511f e33c e186 91bc 10a0 8abb 71c2 80bc
00000300: ea5b bcbc 5c65 12bb b93d aebc 34e7 ac3b
00000310: 043a b4bc ecee c03c 8cc6 fbbb 57f5 3bbd
00000320: 6e5e 963c 9ed8 22bc ec70 3e3b 2766 2bbc
00000330: 1eb5 d4bc 991f c23c 887e 17bd 5af7 38bd
00000340: 0dd3 97bc e9b0 243d d4b5 323c a563 b43c
00000350: 8f29 4c3c 7a33 a93a 1673 183d e634 9dbd
00000360: ea70 ef3c f8fd 12bb b97f 46bd 401d c63c
00000370: d433 b2bb fd5a ccbc 6146 573d c652 06bd
00000380: 3aff 52bc e1ac abba 97bc e4bc deb1 933c
00000390: 8232 26bd c57a 85bc 5adf b0bb e20a 7d3c
000003a0: 8a42 17bd cf35 a63b b78f c03c 85c9 26bd
000003b0: c334 6cbb acf5 b43c 8e0b 95bc 7004 d43c
000003c0: 636c 70bd 8c8b 113a 1896 99bc 6fe7 553c
000003d0: 898a bb3c da3a 2a3d f305 e93b 6eb7 8dbb
000003e0: 62f3 ebbc 694f 7cbb c06c 813c b60b b2bb
000003f0: a80f ba3c ec7f 483d 1448 223c 52b4 2dba
-0.044568583 0.053238153 0.011681672 0.010100151 0.007364493 0.019841732 0.022497704 -0.024415333
-0.018115684 0.021558272 -0.0140382955 -0.011197166 0.003491979 -0.007900974 0.0018334779 0.013105383
-0.055810202 -0.030661058 0.008757256 0.046998467 0.005850436 -0.005409354 -0.016883956 0.005891948
-0.0010820084 0.045942944 0.016671391 -0.03841832 -0.031409085 0.04059752 0.0052916217 0.02636659
0.007400086 0.0058797793 0.04384412 -0.030818816 -0.040106878 -0.024349298 0.02957494 0.0047312975
-0.005271282 0.021200346 -0.029181432 0.03194217 0.015057071 0.0020685687 -0.001228407 0.023201706
-0.038379222 0.006687837 -0.037418198 0.028869383 -0.0074575413 -0.0026617583 0.03545393 0.041134093
0.00724676 0.007632099 -0.03094336 -0.016019244 0.021988507 -0.01999841 -0.027767403 -0.008495991
-0.033366952 -0.033430196 0.042272575 -0.035705186 0.030585472 0.013885414 -0.007132655 -0.008467171
-0.024405193 -0.00497226 -0.0037409554 0.03375293 0.028170155 -0.0026836966 -0.0107517 -0.016221844
0.046424326 0.018497901 0.02974429 0.037247524 0.010031104 -0.034853812 0.029362135 -0.009792113
-0.0025303895 0.012184071 0.048940003 -0.027626598 0.0095841065 0.047222722 0.047579635 0.048139494
-0.015985372 0.012306195 0.0051873648 -0.027895175 0.027536718 -0.023213184 -0.018847687 -0.039150435
0.0070907827 0.0112280445 0.03720877 -0.016156008 0.009615335 0.027442861 -0.013813585 -0.03088207
0.046126455 -0.008966021 0.018604366 -0.009649495 0.0025954226 -0.028003713 -0.0054885913 -0.012536555
0.04275065 0.014612615 -0.003726769 0.009191875 -0.014733747 -0.009310991 -0.035045672 -0.04894802
0.048865777 0.04627782 0.033794437 0.0045633456 -0.00014374516 0.0133706825 0.037962507 -0.038042713
0.037082713 -0.03605299 0.002720599 -0.0031572557 -0.03304071 -0.026423631 -0.025219101 -0.0432494
0.016658917 0.036199618 0.027190201 0.03384505 -0.026513062 -0.016653204 -0.016552798 -0.052079085
0.012701336 0.018255297 0.014894467 -0.0065170624 0.038630456 -0.01398596 -0.021429641 -0.064693004
0.014483672 -0.012189447 0.004948605 0.025847983 0.010927135 -0.05362983 0.008376937 0.015509707
-0.042284053 -0.03615258 -0.0006951691 -0.00018132677 0.005682151 0.0028426757 -0.022339288 -0.052126754
-0.04506623 -0.009316147 -0.014084502 -0.014292655 -0.003322264 0.013352579 0.018660598 0.029064512
0.014946399 -0.027115943 0.004360977 -0.014098065 0.027724894 -0.01776451 -0.0042305067 -0.015717717
-0.022993047 -0.0022338247 -0.021269666 0.005276585 -0.02200032 0.023551427 -0.0076835807 -0.04588827
0.018355574 -0.009939341 0.0029059006 -0.010461367 -0.02596527 0.023696708 -0.036985904 -0.045157768
-0.018533254 0.040207777 0.010907609 0.02202017 0.01246108 0.0012909018 0.03721913 -0.07676105
0.029228646 -0.002242921 -0.04846165 0.02418387 -0.0054383073 -0.02494573 0.052557353 -0.032793783
-0.012878234 -0.0013097787 -0.027921958 0.01802915 -0.04057551 -0.016293893 -0.0053977193 0.015444489
-0.03692869 0.0050723325 0.023506029 -0.040719528 -0.003604219 0.022089802 -0.018193986 0.025881022
-0.058697116 0.0005552105 -0.018748328 0.013055666 0.022893207 0.04156003 0.007111305 -0.004324845
-0.028802577 -0.003849948 0.015798926 -0.005433525 0.022712544 0.04895012 0.00990488 -0.0006626296
